tic_tac_toe_model_position.pth (torch, 21800 bytes, 4 tensors)

fc1.weight f4 [256, 9]
-1.8305745 3.0681465 1.006537 0.12050798 0.81728995 0.6343021 -1.3200366 -0.884952
-0.05518013 1.322697 0.98838633 -0.5898099 -0.4077013 -2.929839 -1.1172124 -1.5890061
-0.8072605 -0.13866262 0.22561078 0.11182467 -2.0233626 -2.7000082 -1.0001936 -0.33264259
2.2692432 3.0673287 -1.0256428 -0.5886207 -1.643443 1.8269682 1.1987311 2.1598532
0.13293985 0.965726 -0.7242529 -0.41600785 2.623254 -0.26037383 2.5559065 -1.0238897
-0.49689883 3.782991 0.86339694 -0.6308202 0.6202316 0.16609108 2.8495984 -0.6515178
-1.6288623 -0.962562 -0.7465036 -2.155141 -0.31522435 -1.1605332 -0.56352025 -2.3359976
0.22102572 -0.6358448 -2.28885 -1.5332961 -0.9732744 0.16764997 2.2012846 0.22419098
1.3168036 0.30759862 0.67065704 0.87401617 -0.34125665 1.4218417 0.008899907 -2.5028372
0.5111423 -1.8169686 -1.269258 2.3237638 -1.7965024 0.14419387 0.33348972 -1.4140922
1.1503723 0.7990536 -1.7331188 -0.13817099 1.004472 2.2818875 0.9702022 -0.38362467
1.5391314 1.1187524 -1.7215331 0.2171208 2.9875872 -2.4645064 -0.41251397 2.4548175
2.8018293 0.47128925 1.5290698 0.040309 0.027926385 -1.306598 2.4953573 -0.7931913
-1.2956413 0.96369904 -1.4504153 1.2026919 -2.6098256 -1.0527753 1.0765707 -1.6176672
-0.2833727 -1.787121 0.67275715 -1.7651042 3.0398886 0.9836638 2.1592534 0.4902162
1.303094 1.14158 -4.2655315 -2.9261696 0.8943041 2.1396108 -2.557656 -0.44453168
1.0091813 -0.39830157 1.7205216 -0.93179137 1.5112497 0.11506894 0.53058976 -0.76001567
-0.81105256 -1.3758035 -0.29935083 -3.0316408 -1.6664195 2.696521 1.7843345 1.1549274
-2.0018842 -2.981837 2.3629677 -0.7330741 0.09336997 3.2623873 -1.7450489 0.15064792
2.2161038 1.1062716 0.8148057 1.1504558 0.64878035 0.42562994 1.0800387 -2.2405655
0.8858303 1.3306018 -2.2831676 3.3881414 -0.4453369 -1.3723661 0.25878567 2.0290153
1.7385055 -0.14122175 2.4416077 -1.3655736 -0.5874107 0.42709643 -2.252941 -2.3241518
-0.27238286 2.0311286 -0.77014005 -1.7256811 1.9744636 -0.51888174 0.08688153 -1.1466659
-0.72485894 -2.3864357 1.1528898 -2.4617245 -2.4645233 3.0832129 -0.490643 1.4822259
-0.67223114 -0.959133 -2.736205 -1.3424827 0.40777582 1.9841412 -2.4347162 0.12773843
0.7099058 2.6087086 1.0536442 0.6930902 1.5516866 2.0363708 1.0862652 -2.3072486
1.6540463 -1.114668 1.118993 -0.79044855 1.8727677 0.32095382 0.55112976 0.4545143
-2.1778288 -3.26705 1.9697818 0.24057813 -2.8306015 0.56663704 0.9910135 -0.9559589
1.0475088 -2.8334868 1.1861423 0.09271093 0.7311192 -1.6632484 1.5235064 1.654212
0.3277691 1.0507377 2.0214548 -1.1600227 0.74367493 -1.2363651 0.16130328 0.7145721
0.1066435 -1.0984355 -1.8013345 -1.1958799 1.6620339 -0.048274253 2.490463 -0.8870913
-0.5987297 -0.29722837 -0.79443973 -3.6921349 -1.0805365 1.7732717 1.4815546 -3.003732
00000000: 4450 eabf 835c 4440 34d6 803f e3cc f63d
00000010: ea39 513f 9f61 223f f6f6 a8bf 378c 62bf
00000020: 8f04 62bd 234e a93f e306 7d3f c8fd 16bf
00000030: 3abe d0be 7b82 3bc0 d100 8fbf 8d64 cbbf
00000040: a0a8 4ebf 93fd 0dbe 8306 673e 5504 e53d
00000050: c67e 01c0 efcc 2cc0 5806 80bf 2150 aabe
00000060: 483b 1140 1d4f 4440 4348 83bf d9af 16bf
00000070: 575c d2bf 18da e93f 0570 993f 093b 0a40
00000080: 6221 083e d239 773f a368 39bf fbfe d4be
00000090: 65e3 2740 b84f 85be f993 2340 d10e 83bf
000000a0: 8669 febe 861c 7240 9507 5d3f 6f7d 21bf
000000b0: 80c7 1e3f c813 2a3e d25f 3640 dfc9 26bf
000000c0: 8f7e d0bf 776a 76bf dc1a 3fbf d5ed 09c0
000000d0: 1665 a1be 5a8c 94bf dd42 10bf fc80 15c0
000000e0: 9154 623e bac6 22bf 857c 12c0 0c43 c4bf
000000f0: 8328 79bf 6fac 2b3e d9e1 0c40 5292 653e
00000100: 058d a83f 917d 9d3e 2eb0 2b3f 86bf 5f3f
00000110: 31b9 aebe e9fe b53f ead0 113c 7c2e 20c0
00000120: 39da 023f 6d92 e8bf 0c77 a2bf 8cb8 1440
00000130: caf3 e5bf 8fa7 133e 2abf aa3e f900 b5bf
00000140: 663f 933f c78e 4c3f d6d6 ddbf b27c 0dbe
00000150: 8a92 803f 720a 1240 2c5f 783f 746a c4be
00000160: 4202 c53f 4733 8f3f 325b dcbf ea54 5e3e
00000170: a134 3f40 79ba 1dc0 0835 d3be bb1b 1d40
00000180: 2c51 3340 d34c f13e 8fb8 c33f 0d1b 253d
00000190: e0c5 e43c 9a3e a7bf efb3 1f40 960e 4bbf
000001a0: 93d7 a5bf fbb4 763f 35a7 b9bf cff1 993f
000001b0: 6207 27c0 57c1 86bf 12cd 893f b80f cfbf
000001c0: 3a16 91be 62c0 e4bf d039 2c3f efee e1bf
000001d0: 898d 4240 64d1 7b3f 3531 0a40 9efd fa3e
000001e0: c9cb a63f 4b1f 923f 3c7f 88c0 5d46 3bc0
000001f0: 1df1 643f 62ef 0840 a3b0 23c0 a899 e3be
00000200: da2c 813f 2fee cbbe 0d3a dc3f e189 6ebf
00000210: a170 c13f 44a9 eb3d bbd4 073f 6390 42bf
00000220: 24a1 4fbf 541a b0bf 8344 99be 6706 42c0
00000230: 3c4d d5bf cd93 2c40 1365 e43f a9d4 933f
00000240: df1e 00c0 6bd6 3ec0 dd3a 1740 bfaa 3bbf
00000250: c138 bf3d f4ca 5040 c35d dfbf 7343 1a3e
00000260: a5d4 0d40 4f9a 8d3f 1b97 503f 2342 933f
00000270: 7816 263f 2bec d93e b53e 8a3f 6d65 0fc0
00000280: c6c5 623f 2951 aa3f 6b1f 12c0 4fd7 5840
00000290: 3303 e4be b1a9 afbf 8e7f 843e 63db 0140
000002a0: 5987 de3f 6f9c 10be 4d43 1c40 1ecb aebf
000002b0: 8c60 16bf 62ac da3e 2f30 10c0 e7be 14c0
000002c0: c475 8bbe 03fe 0140 e627 45bf 1ee3 dcbf
000002d0: 39bb fc3f 6fd5 04bf f2ee b13d f3c5 92bf
000002e0: 5b90 39bf 5dbb 18c0 e591 933f e58c 1dc0
000002f0: c0ba 1dc0 5c53 4540 8f35 fbbe 94b9 bd3f
00000300: 5717 2cbf be89 75bf fc1d 2fc0 79d6 abbf
00000310: fec7 d03e 57f8 fd3f 64d2 1bc0 ddcd 023e
00000320: 63bc 353f 15f5 2640 d0dd 863f 5c6e 313f
00000330: ab9d c63f e653 0240 bd0a 8b3f f6a9 13c0
00000340: cab7 d33f 71ad 8ebf 2a3b 8f3f d65a 4abf
00000350: dab6 ef3f 0f54 a43e d716 0d3f 19b6 e83e
00000360: 8c61 0bc0 5917 51c0 cf21 fc3f 1d5a 763e
00000370: 9328 35c0 200f 113f 10b3 7d3f b9b9 74bf
00000380: c514 863f d957 35c0 83d3 973f 3adf bd3d
00000390: a12a 3b3f 53e5 d4bf 4202 c33f 38bd d33f
000003a0: 5ad1 a73e 937e 863f 845f 0140 a07b 94bf
000003b0: 7b61 3e3f 3641 9ebf b02c 253e 32ee 363f
000003c0: e867 da3d 8999 8cbf 2192 e6bf 9812 99bf
000003d0: 87bd d43f 39bb 45bd bf63 1f40 6a18 63bf
000003e0: 5a46 19bf 512e 98be 6760 4bbf f04b 6cc0
000003f0: 054f 8abf 91fa e23f 95a3 bd3f 253d 40c0

fc1.bias f4 [256]
0.42877847 0.647638 0.22027159 1.4626107 0.20413308 -0.10823441 -0.37521905 -0.46134517
-0.36410555 -0.35819507 -1.244934 0.17955096 1.1848094 -0.42148146 -1.2136214 0.7523749
-2.299987 -0.1051286 -0.60889333 -0.5752238 -0.002015938 1.3716451 -1.0891896 0.23117149
-0.16624214 -0.94253105 -1.3851926 0.32961375 0.6249463 1.7672251 0.97945595 0.016702574
-0.03727294 -0.35582325 -0.7279511 0.4627318 -0.35101315 -0.791323 -0.062490724 -0.3786542
-1.6561235 0.1862733 0.6390878 -0.37465927 -0.15633841 0.65219545 0.52989054 -0.51592344
0.056216415 -0.64367676 0.105869375 0.47948658 0.9131683 -0.18754163 -0.5892418 -1.6252062
1.4238436 -0.8026939 0.19191682 -0.17443098 0.36323628 -1.3200092 -0.62698364 -0.39016706
0.3776466 0.9366863 -0.0072478834 0.84724945 0.11841858 -0.33694604 0.5057982 -1.9146657
-0.3802116 -0.21985416 -0.7472159 0.57086366 0.06978005 0.7244885 -0.10990629 0.44048956
-0.4123699 -0.69827 -0.5835024 0.20606819 -1.0656825 -1.4438543 0.5977808 -1.6760687
0.9261758 0.28872743 -0.22310598 0.49300298 -0.85276 -0.6481788 -1.6414362 0.033409566
0.8147228 1.6901029 -1.4739747 -2.186367 -0.2294731 0.6145765 -0.17157853 0.64872366
0.45728084 0.6764458 -0.21493238 -0.8641514 -0.22823235 -0.68990177 -1.2935972 -0.7632608
-0.5787373 -0.75849724 -1.3732756 0.3794371 -0.08069774 1.0395539 0.49547303 -1.3284736
-0.13621658 -0.3739727 -0.94629234 -0.7330868 -0.874948 -0.2588509 1.2139642 -1.2162249
-0.45019722 -0.22873078 -0.57170445 0.41753596 -0.3456279 -1.0470761 0.86438054 -0.17139399
0.978798 1.0439663 -0.31233782 0.22841482 -0.17222896 0.42517006 0.14557678 0.89893776
-1.0739146 -0.10648899 -0.07614596 0.41192594 -1.1017289 0.07709211 1.0577955 0.17543086
0.23923995 0.14917052 0.44525117 0.60021704 0.40116307 -1.3040129 0.40962622 -1.2118437
-0.34575397 0.57003236 0.93433684 0.6160031 0.5249114 0.30606297 -0.6875285 1.0516024
-0.93451416 0.3039527 -1.5023844 -2.0302153 -1.0351142 -0.70853394 -0.21389334 1.2420101
1.5687135 -1.6328839 0.4873863 -0.27628314 0.6929831 0.47075054 0.5413851 -0.59846175
0.17304093 -1.2977223 0.055274304 -0.9626194 0.33800247 0.6181635 -0.96924543 0.018160367
-2.2888663 0.045723327 -1.6472815 -1.3037277 -0.33096945 0.2455846 1.1065655 -0.3158149
-2.0233715 -1.1500622 0.12498688 -0.28366154 -1.0690857 1.0501612 1.2037464 -0.18747881
-0.34608966 0.62612647 -0.61771095 -1.4278638 0.5342857 -2.2267487 -0.0939757 -0.9561346
-0.8795717 0.5904889 0.47666073 -1.1067356 0.5626355 -1.592191 0.117547326 -1.176545
0.14245227 0.36468446 0.32217386 0.3726842 0.3290875 -0.05303537 -0.95399153 -0.16883796
0.024968574 -0.40304556 -0.81605834 -0.3815755 0.210166 -0.08791671 0.3296322 -0.11371945
0.25526738 -0.70963925 1.4720914 -1.503605 -0.54197305 -0.31914487 -1.107697 -0.18600646
-1.004133 1.1049881 -0.32483098 -0.58654976 -0.86240023 0.9004548 -0.21077968 0.6762328
00000000: da88 db3e 9bcb 253f e08e 613e d436 bb3f
00000010: 4308 513e 01aa ddbd b61c c0be 6f35 ecbe
00000020: 0b6c babe 5865 b7be ff59 9fbf 35dc 373e
00000030: d6a7 973f 6bcc d7be f257 9bbf a49b 403f
00000040: fd32 13c0 aa4d d7bd 6fe0 1bbf de41 13bf
00000050: d41d 04bb 1192 af3f 916a 8bbf 38b8 6c3e
00000060: 613b 2abe b749 71bf fe4d b1bf 22c3 a83e
00000070: 7bfc 1f3f 6f34 e23f a0bd 7a3f d6d3 883c
00000080: 83ab 18bd 772e b6be 015b 3abf 2feb ec3e
00000090: ffb7 b3be 2594 4abf 46f6 7fbd f7de c1be
000000a0: dbfb d3bf 6ebe 3e3e 429b 233f 57d3 bfbe
000000b0: 2d17 20be 48f6 263f e8a6 073f 8f13 04bf
000000c0: 2f43 663d 00c8 24bf 0bd2 d83d 447f f53e
000000d0: 66c5 693f ea0a 40be 8dd8 16bf c206 d0bf
000000e0: 8240 b63f 597d 4dbf d885 443e 099e 32be
000000f0: 1bfa b93e 10f6 a8bf 0082 20bf fac3 c7be
00000100: e55a c13e acca 6f3f a77f edbb 57e5 583f
00000110: 7185 f23d 3184 acbe fe7b 013f c413 f5bf
00000120: 18ab c2be 7321 61be 8b49 3fbf 1f24 123f
00000130: d8e8 8e3d 1478 393f 8d16 e1bd d987 e13e
00000140: 2622 d3be d3c1 32bf 6a60 15bf 8a03 533e
00000150: 4968 88bf 38d0 b8bf 2a08 193f 6b89 d6bf
00000160: db19 6d3f 15d4 933e e575 64be e36a fc3e
00000170: 7b4e 5abf 0cef 25bf 951a d2bf 78d8 083d
00000180: ac91 503f 4b55 d83f 34ab bcbf 70ed 0bc0
00000190: fffa 6abe e354 1d3f 48b2 2fbe c112 263f
000001a0: b720 ea3e 8d2b 2d3f 3c17 5cbe 0739 5dbf
000001b0: beb5 69be 679d 30bf 9894 a5bf 0f65 43bf
000001c0: 2128 14bf e02c 42bf 7fc7 afbf 9445 c23e
000001d0: db44 a5bd 1a10 853f a4ae fd3e 6c0b aabf
000001e0: 5c7c 0bbe 5a79 bfbe 3740 72bf 94ab 3bbf
000001f0: 98fc 5fbf 1b88 84be 2e63 9b3f 42ad 9bbf
00000200: 4080 e6be 6738 6abe 395b 12bf 46c7 d53e
00000210: 24f6 b0be 9706 86bf 0b48 5d3f e881 2fbe
00000220: 8192 7a3f b0a0 853f beea 9fbe 93e5 693e
00000230: ca5c 30be e4af d93e 1412 153e c920 663f
00000240: 0976 89bf e616 dabd 6af2 9bbd f5e7 d23e
00000250: 7405 8dbf 78e2 9d3d d865 873f 26a4 333e
00000260: 51fb 743e 28c0 183e f6f7 e33e d3a7 193f
00000270: 3f65 cd3e e5e9 a6bf 87ba d13e b21d 9bbf
00000280: aa06 b1be a4ed 113f b330 6f3f 61b2 1d3f
00000290: 9860 063f 49b4 9c3e de01 30bf e89a 863f
000002a0: 523c 6fbf b09f 9b3e 224e c0bf 0cef 01c0
000002b0: 9f7e 84bf 7b62 35bf db06 5bbe 30fa 9e3f
000002c0: 9bcb c83f 5702 d1bf b28a f93e fc74 8dbe
000002d0: 5767 313f 3706 f13e 3798 0a3f ca34 19bf
000002e0: a431 313e c41b a6bf 4f67 623d 3a6e 76bf
000002f0: a90e ad3e f73f 1e3f 7820 78bf 0dc5 943c
00000300: c97c 12c0 6248 3b3d 1fda d2bf 8de0 a6bf
00000310: d474 a9be 887a 7b3e f0a3 8d3f 7eb2 a1be
00000320: eb7e 01c0 3d35 93bf 1ff9 ff3d 163c 91be
00000330: cdd7 88bf af6b 863f 5d14 9a3f 72fa 3fbe
00000340: aa32 b1be d349 203f 4e22 1ebf 3ec4 b6bf
00000350: f3c6 083f 0d83 0ec0 5576 c0bd 3dc5 74bf
00000360: 9c2b 61bf 482a 173f e00c f43e 83a9 8dbf
00000370: e108 103f eacc cbbf a7bc f03d 0799 96bf
00000380: 02df 113e ecb7 ba3e f9f3 a43e 77d0 be3e
00000390: 287e a83e 9e3b 59bd ca38 74bf dce3 2cbe
000003a0: e58a cc3c fd5b cebe 33e9 50bf dd5d c3be
000003b0: c235 573e ad0d b4bd 8dc5 a83e bee5 e8bd
000003c0: 68b2 823e ebaa 35bf 7e6d bc3f 2176 c0bf
000003d0: bfbe 0abf f566 a3be 04c9 8dbf 7a78 3ebe
000003e0: 6e87 80bf 4070 8d3f 3f50 a6be 2028 16bf
000003f0: 43c6 5cbf 3584 663f a1d6 57be 981d 2d3f

fc2.weight f4 [9, 256]
-1.1803691 -0.9569542 0.7903201 -0.8646824 0.22088824 0.9281431 -0.54885244 0.39856026
-0.614643 0.32833338 -0.16367006 0.11317266 0.17191504 2.8749554 -1.0307363 1.8267137
1.4676985 0.8930948 1.0010005 0.5580221 -1.2715455 -1.5584894 -1.2505494 -0.9671243
0.7908401 -1.7407043 -0.5223292 1.3360432 -0.3542453 -0.14152932 -1.1481596 0.6988107
-0.6492315 -0.06034935 -0.97671264 -1.1665387 -0.024354339 1.2513177 -0.2977921 1.2554
0.52271837 0.9723078 -0.34012088 1.261333 0.5138252 -0.13770443 -1.1242833 -0.0547013
0.4781503 0.096046604 -2.1985989 -0.37243786 0.4109435 0.9035928 0.9076616 -2.555807
1.6596955 0.5265685 -0.08673173 0.98664594 -0.89435965 -0.72561836 -1.9815352 -0.5530319
0.18174368 0.8246643 0.2536226 -1.471265 0.7021018 0.65352464 -1.8501496 -0.43647933
0.5590595 1.7744635 1.0415703 1.0735874 -0.063222274 -0.021158068 -1.8640429 1.9326928
1.6268048 0.03857668 -2.511045 0.20483585 -1.8063745 3.2204323 -1.6193709 -0.6184332
0.41022456 1.1636896 0.3362887 -0.565623 1.8000654 0.85616255 -2.013232 0.30145192
-0.83796704 -0.69967735 1.7980365 -1.2412261 0.043586932 -0.44177216 -1.4564289 0.06905169
0.24789214 -0.090028465 0.8202592 -1.059505 -2.3248131 1.6240449 0.521654 -1.7308983
-0.59161747 0.24999733 3.2281222 0.9142809 -1.015926 -0.684088 -0.32450658 0.5939335
-0.08390587 -1.2473931 0.9204868 -1.9645386 0.39378658 0.55421865 -0.59659725 0.8390111
1.3824556 0.951639 -0.3493061 1.7608057 -0.5308036 -2.0990899 1.477062 0.5111464
0.49436006 -1.674806 -0.70047843 0.8675679 -1.0748272 -1.3278755 0.48253173 -1.1421509
-0.3587465 1.3536757 -0.38962123 -0.22162734 0.6375448 -1.4685401 0.386382 -0.24702713
0.8241771 0.114984006 -1.5499384 0.46570194 -1.4006543 0.6040327 -1.671219 0.029162312
0.76601064 -0.79037696 0.32637176 -0.10974044 0.8033081 0.7457673 -0.70036775 0.56692636
-1.2148863 1.2420523 2.4572165 1.1059601 -1.623467 -1.1559365 1.0267735 -0.47734255
-1.1695927 -2.2555985 0.7612669 0.8878755 0.33684602 -1.238384 0.27319738 -0.17171472
0.03898889 0.024770007 -1.4224378 1.3566651 2.065024 -0.4988823 -0.75569314 -0.034788065
-2.016406 -0.24256165 -0.2900303 0.45631695 1.742635 -0.9892148 0.12302979 -1.5100718
0.29096738 0.61930394 -1.0860853 0.59503335 -0.52733696 0.2173733 1.0362513 2.178996
-0.17649429 0.34550014 1.6939507 -0.8382565 1.1442657 0.6032874 -1.5756165 0.64312804
-2.4694333 1.2358214 -1.0752602 1.7046496 -1.1943848 -0.3660529 -1.135265 -2.4892945
-1.2712259 0.46527386 0.20763196 1.7554475 1.5994241 -0.30275714 -1.3216188 -1.2470435
0.22020188 -0.08661195 -1.3055621 -1.0545135 -0.5394552 -1.5411383 -0.3660025 0.2539339
2.0036516 0.55718833 -1.3861322 -0.3545429 0.21148714 -0.45166996 0.38495237 0.81822354
-1.9548076 -1.1157943 1.8664218 0.6396223 -2.1725972 1.6868575 0.018745752 -2.2996638
00000000: 5616 97bf f3fa 74bf 6b52 4a3f d35b 5dbf
00000010: 8730 623e c99a 6d3f 9881 0cbf 1710 cc3e
00000020: 3e59 1dbf 501b a83e 2099 27be 11c7 e73d
00000030: 7f0a 303e 45ff 3740 2bef 83bf c1d1 e93f
00000040: 8bdd bb3f dca1 643f c920 803f 89da 0e3f
00000050: 01c2 a2bf 957c c7bf 0112 a0bf 7595 77bf
00000060: 7f74 4a3f 66cf debf 5eb7 05bf 7703 ab3f
00000070: a45f b5be 10ed 10be e5f6 92bf 42e5 323f
00000080: 0934 26bf e130 77bd d709 7abf 2451 95bf
00000090: c082 c7bc 2e2b a03f 3578 98be f2b0 a03f
000000a0: dfd0 053f 2ae9 783f 5324 aebe 5c73 a13f
000000b0: 0c8a 033f 6402 0dbe 84e8 8fbf 780e 60bd
000000c0: 1ed0 f43e 15b4 c43d d8b5 0cc0 2db0 bebe
000000d0: 3067 d23e dc51 673f 835c 683f 5892 23c0
000000e0: e770 d43f 31cd 063f 68a0 b1bd d494 7c3f
000000f0: c1f4 64bf 20c2 39bf f2a2 fdbf 8093 0dbf
00000100: 041b 3a3e 331d 533f d2da 813e 6952 bcbf
00000110: f2bc 333f 644d 273f b4d1 ecbf 387a dfbe
00000120: 861e 0f3f 9f21 e33f 2d52 853f 506b 893f
00000130: ae7a 81bd af53 adbc f598 eebf 7a62 f73f
00000140: 243b d03f 9502 1e3d f6b4 20c0 7dc0 513e
00000150: 4837 e7bf 901b 4e40 8c47 cfbf a351 1ebf
00000160: f408 d23e c8f3 943f 082e ac3e abcc 10bf
00000170: 8b68 e63f 782d 5b3f cbd8 00c0 e857 9a3e
00000180: 0285 56bf 0e1e 33bf 0f26 e63f 7fe0 9ebf
00000190: 3688 323d f62f e2be 436c babf f96a 8d3d
000001a0: 70d7 7d3e d860 b8bd 82fc 513f dc9d 87bf
000001b0: bdc9 14c0 b4e0 cf3f 1e8b 053f 138e ddbf
000001c0: 3e74 17bf 4dff 7f3e 8e99 4e40 500e 6a3f
000001d0: dd09 82bf 6420 2fbf ba25 a6be 070c 183f
000001e0: d7d6 abbd 94aa 9fbf 06a5 6b3f 0076 fbbf
000001f0: 659e c93e 46e1 0d3f 99ba 18bf 6ec9 563f
00000200: 4ef4 b03f 9d9e 733f 40d8 b2be 1562 e13f
00000210: bfe2 07bf 7d57 06c0 5e10 bd3f 7eda 023f
00000220: c31c fd3e 0b60 d6bf 8e52 33bf ee18 5e3f
00000230: f093 89bf d3f7 a9bf 660e f73e 0032 92bf
00000240: 9fad b7be 3f45 ad3f 6f7c c7be 47f2 62be
00000250: 2336 233f 1ff9 bbbf ddd3 c53e aef4 7cbe
00000260: 45fd 523f bc7c eb3d 6264 c6bf 7c70 ee3e
00000270: a448 b3bf e3a1 1a3f 81ea d5bf cde5 ee3c
00000280: 4619 443f 2556 4abf 331a a73e 99bf e0bd
00000290: 9aa5 4d3f 9bea 3e3f 4d4b 33bf 1622 113f
000002a0: 6581 9bbf 92fb 9e3f 0943 1d40 1a90 8d3f
000002b0: c4cd cfbf baf5 93bf 506d 833f 3e66 f4be
000002c0: 37b5 95bf ba5b 10c0 63e2 423f cf4b 633f
000002d0: 1577 ac3e 5e83 9ebf 87e0 8b3e fcd5 2fbe
000002e0: d0b2 1f3d 78ea ca3c 7112 b6bf 34a7 ad3f
000002f0: 5a29 0440 806d ffbe 1b75 41bf ee7d 0ebd
00000300: cc0c 01c0 1562 78be da7e 94be 60a2 e93e
00000310: aa0e df3f 2e3d 7dbf 0bf7 fb3d 084a c1bf
00000320: adf9 943e b48a 1e3f d804 8bbf 1b54 183f
00000330: 8eff 06bf 1b97 5e3e e2a3 843f ac74 0b40
00000340: ebba 34be 65e5 b03e 60d3 d83f fa97 56bf
00000350: 4c77 923f 0b71 1a3f cdad c9bf 0aa4 243f
00000360: 320b 1ec0 652f 9e3f 20a2 89bf f531 da3f
00000370: 9ae1 98bf 496b bbbe 5d50 91bf 9a50 1fc0
00000380: 88b7 a2bf 6038 ee3e 799d 543e 81b2 e03f
00000390: eeb9 cc3f fc02 9bbe ce2a a9bf 1f9f 9fbf
000003a0: 9a7c 613e 9b61 b1bd a91c a7bf 4cfa 86bf
000003b0: bc19 0abf 0544 c5bf ae64 bbbe a003 823e
000003c0: d43b 0040 e5a3 0e3f c86c b1bf a686 b5be
000003d0: 1690 583e 4941 e7be 7a18 c53e 1977 513f
000003e0: 2337 fabf 59d2 8ebf e9e6 ee3f 49be 233f
000003f0: d50b 0bc0 f2ea d73f b190 993c b12d 13c0

fc2.bias f4 [9]
-0.0997794 -0.097019106 -0.03540009 0.010324962 -0.00011542708 0.06327695 -0.1041435 -0.057641342
0.10011074
00000000: 2459 ccbd f4b1 c6bd afff 10bd 082a 293c
00000010: 7111 f2b8 5897 813d 3049 d5bd 5419 6cbd
00000020: dc06 cd3d
