tic_tac_toe_model_win.pth (torch, 22228 bytes, 5 tensors)

fc1.weight f4 [64, 9]
0.21068062 -0.16521712 -1.1936321 -0.12288805 -1.1347731 0.0029997828 0.7303826 -0.6907038
-0.5016929 0.07509736 -1.0190723 -0.7803784 -0.26240343 -0.6010235 -0.5572649 -0.45391595
-0.072646216 -1.1668081 0.74344105 0.6233825 0.72308445 0.7261417 0.61124176 0.83484995
0.726315 0.6403374 0.6541465 0.7580617 0.6259813 0.82873285 0.27451894 0.7844453
1.1195679 0.60179824 0.39902732 0.2695373 -1.0577646 0.09494767 -0.59201074 -0.39008775
-0.886891 -0.61246955 -0.60857564 -0.97210145 0.6603417 -1.1304222 -0.90507054 -0.7698765
0.6909866 -0.3220044 -0.95064086 -0.48273236 -1.1304318 0.5807872 -1.1903194 -0.36144775
-0.6912968 -0.32749742 -0.57729346 -0.86871105 -0.7631178 -0.8729849 -0.41649473 -1.0005479
-0.8997571 -0.73101217 0.9541641 0.30276027 -0.621638 -0.21867895 -0.7489975 0.83243483
-0.57997614 -1.0869169 -0.28626302 -0.6000741 -0.7369625 -0.5713084 -0.93206865 -0.086228825
-0.75980353 -0.69058985 -0.48382762 0.3021731 1.03897 -0.61079746 -1.3020015 -1.1558868
-1.0289323 -0.6453169 0.3994962 0.82777625 0.47401515 0.49357793 0.71570903 1.1239014
1.087629 1.0508869 0.5619783 0.89117783 0.5287449 0.85468733 0.8469098 0.7825543
0.8679944 0.811281 0.80485773 0.9194951 -0.10935666 1.1218026 0.5043597 0.415982
0.5043892 1.0297354 -0.05278639 0.5646535 -0.05274548 0.78659016 -0.26705825 -0.62220913
0.62897956 0.6290394 0.5417508 -0.6222127 -0.26700523 0.6993817 -0.76089317 -0.5289229
-0.32740346 -0.16970384 -0.42996967 -0.94455934 -1.0199223 -0.44659883 -0.5971694 0.7573329
0.9730043 0.42226708 1.066136 0.42724514 0.96337616 0.4272772 0.4243891 1.1602775
-1.0640626 -0.18874441 0.11275848 -0.85563713 -0.5515532 -0.79388565 -0.8530462 -0.7927969
-0.33800536 0.21131894 0.9442328 0.8223113 0.3546244 0.82230943 0.55276304 0.33800194
0.33621922 0.71165735 -0.97809905 0.4655101 -0.7302401 -0.8362386 -0.53264385 -0.58839095
0.22733015 -1.1402178 -0.03340475 0.49341097 -0.5148724 -0.95622146 -1.1431118 -0.7771851
1.0829072 -0.8641061 -0.47581708 -0.9945019 0.89345753 0.14148225 0.6091548 1.1809932
-0.25634292 1.192252 0.6091583 0.15271555 0.9047262 -0.6567848 -0.3286891 -0.78258795
-1.0741781 -0.2028768 0.24805297 0.26769444 -0.6005938 -0.49447754 -0.18486696 -0.74780744
-0.85528004 -0.3839499 -0.71347815 -0.38394833 -0.18486299 -0.713478 -0.9125605 -0.821248
0.14634341 -0.78212273 -0.37999472 -0.8258025 -1.0805501 -0.5307071 -0.88797003 0.6346735
0.07727494 -0.6825686 -0.3010845 -1.2513843 -0.9667429 0.98446953 0.03383286 -0.607949
-0.48261756 0.90793437 1.0365382 0.10884074 -0.018382158 -0.15618297 0.020280818 0.10883495
1.0365711 0.9466185 -0.19665264 -0.7778111 -0.20020793 -0.1935049 -1.052084 -0.7885047
-0.47129747 -0.20373254 -0.79202026 0.7318962 0.55363905 0.8326399 0.69145256 0.5293371
0.73678184 0.51502776 1.0420086 0.6524736 -0.7930024 -0.8244351 0.31863907 -0.39176533
00000000: a9bc 573e ad2e 29be f0c8 98bf bbac fbbd
00000010: 3f40 91bf 0198 443b 5bfa 3a3f f7d1 30bf
00000020: f26e 00bf a5cc 993d f670 82bf e1c6 47bf
00000030: be59 86be addc 19bf eaa8 0ebf ac67 e8be
00000040: 8ac7 94bd f859 95bf 2752 3e3f ff95 1f3f
00000050: 101c 393f 6ce4 393f 577a 1c3f bab8 553f
00000060: c8ef 393f 27ed 233f 2576 273f 5510 423f
00000070: 4f40 203f d627 543f bf8d 8c3e 68d1 483f
00000080: 004e 8f3f 730f 1a3f 4f4d cc3e cb00 8a3e
00000090: d564 87bf ed73 c23d 048e 17bf 95b9 c7be
000000a0: 4a0b 63bf ceca 1cbf 9dcb 1bbf a4db 78bf
000000b0: 270c 293f adb1 90bf b4b2 67bf a016 45bf
000000c0: 7fe4 303f c3dd a4be 335d 73bf b228 f7be
000000d0: fdb1 90bf 78ae 143f 635c 98bf ae0f b9be
000000e0: d4f8 30bf bead a7be 81c9 13bf d963 5ebf
000000f0: b05b 43bf f07b 5fbf cc3e d5be f411 80bf
00000100: 7b56 66bf 9d23 3bbf 1944 743f 6503 9b3e
00000110: ab23 1fbf 60ed 5fbe 4dbe 3fbf 731a 553f
00000120: 5179 14bf 1820 8bbf 1191 92be 759e 19bf
00000130: 93a9 3cbf 4441 12bf 0d9c 6ebf bd98 b0bd
00000140: 7c82 42bf 7fca 30bf 41b8 f7be 6fb6 9a3e
00000150: f8fc 843f 395d 1cbf fca7 a6bf 19f4 93bf
00000160: 0eb4 83bf 7d33 25bf c48a cc3e 25e9 533f
00000170: 1db2 f23e 3fb6 fc3e b538 373f 00dc 8f3f
00000180: 6d37 8b3f 7683 863f cfdd 0f3f 3b24 643f
00000190: d35b 073f cacc 5a3f 15cf 583f 7b55 483f
000001a0: e234 5e3f 1db0 4f3f 280b 4e3f 0864 6b3f
000001b0: 62f6 dfbd 3a97 8f3f b81d 013f 98fb d43e
000001c0: a71f 013f 5fce 833f 8b36 58bd 228d 103f
000001d0: a50b 58bd f95d 493f dcbb 88be 1949 1fbf
000001e0: ce04 213f ba08 213f 2eb0 0a3f 5549 1fbf
000001f0: e9b4 88be ae0a 333f e5c9 42bf 7e67 07bf
00000200: 6da1 a7be d8c6 2dbe fc24 dcbe a4ce 71bf
00000210: d08c 82bf 9aa8 e4be 18e0 18bf 92e0 413f
00000220: cf16 793f 6433 d83e 2577 883f e0bf da3e
00000230: d29f 763f 14c4 da3e 8749 d93e f983 943f
00000240: 3433 88bf 3746 41be ebed e63d 090b 5bbf
00000250: 9732 0dbf 173c 4bbf 3c61 5abf bdf4 4abf
00000260: 0a0f adbe fe63 583e 3eb9 713f fe82 523f
00000270: 5491 b53e df82 523f e181 0d3f 970e ad3e
00000280: ed24 ac3e 2d2f 363f b364 7abf 5757 ee3e
00000290: 04f1 3abf bc13 56bf 595b 08bf caa0 16bf
000002a0: 3cc9 683e a8f2 91bf 6bd3 08bd 5da0 fc3e
000002b0: adce 03bf eeca 74bf 7d51 92bf 9af5 46bf
000002c0: b49c 8a3f 0f36 5dbf 4c9e f3be ad97 7ebf
000002d0: a2b9 643f b9e0 103e 92f1 1b3f c92a 973f
000002e0: 613f 83be b79b 983f ccf1 1b3f 7761 1c3e
000002f0: 239c 673f 0c23 28bf f049 a8be af57 48bf
00000300: ab7e 89bf f0be 4fbe 9901 7e3e 3f0f 893e
00000310: 84c0 19bf 292c fdbe c44d 3dbe 4f70 3fbf
00000320: a2f3 5abf 1595 c4be 81a6 36bf e094 c4be
00000330: b94c 3dbe 7fa6 36bf 919d 69bf 4f3d 52bf
00000340: 0cdb 153e 3239 48bf ab8e c2be cb67 53bf
00000350: 774f 8abf 6cdc 07bf 0152 63bf f679 223f
00000360: 5342 9e3d d1bc 2ebf bf27 9abe 5c2d a0bf
00000370: 767c 77bf 3206 7c3f 5394 0a3d 8ca2 1bbf
00000380: a619 f7be 636e 683f 49ad 843f e5e7 de3d
00000390: 2e96 96bc 6eee 1fbe f523 a63c dce4 de3d
000003a0: 5dae 843f 9755 723f 4f5f 49be a11e 47bf
000003b0: 4f03 4dbe 2626 46be b0aa 86bf 72db 49bf
000003c0: e74d f1be 439f 50be d7c1 4abf 8d5d 3b3f
000003d0: 4abb 0d3f e327 553f 0903 313f a382 073f
000003e0: bc9d 3c3f dcd8 033f 8a60 853f 8308 273f
000003f0: 3502 4bbf 2e0e 53bf a924 a33e 7795 c8be

fc1.bias f4 [64]
0.8068675 0.6326212 0.23418634 0.54915017 0.78338736 0.5445109 0.8179501 -0.44181582
0.9003908 0.6104664 0.5888333 0.41739327 0.0527735 -0.6290375 0.9280819 0.6321314
0.12850071 0.57223403 0.8791049 0.41363543 0.26761124 0.9483571 1.0200285 0.844136
0.9018879 0.15617478 0.19313361 0.42133236 0.8247797 0.43126854 0.36143386 0.32975692
0.3283726 0.79004025 -0.36515892 -0.9145264 0.66307616 1.032686 0.3634018 0.83717805
0.9450963 -0.7285286 0.44410783 0.68738014 0.53292435 0.34837046 0.3652455 -1.0705312
0.29135352 0.30441448 -0.84362274 0.9159878 -0.2689998 0.75608844 0.5661515 0.5909754
0.47058335 0.68290186 0.2876 0.41865763 0.03174384 0.22590783 -0.705784 0.5560345
00000000: de8e 4e3f 77f3 213f 8bce 6f3e 1b95 0c3f
00000010: 138c 483f 1165 0b3f 2e65 513f af35 e2be
00000020: 0380 663f 8747 1c3f c7bd 163f 92b4 d53e
00000030: 0729 583d 9a08 21bf c796 6d3f 5dd3 213f
00000040: b195 033e ee7d 123f 050d 613f 06c8 d33e
00000050: 5704 893e 88c7 723f 4b90 823f 4c19 583f
00000060: 20e2 663f 48ec 1f3e d1c4 453e e0b8 d73e
00000070: c324 533f 3bcf dc3e dc0d b93e e6d5 a83e
00000080: 7420 a83e 1440 4a3f 1cf6 babe 671e 6abf
00000090: 5cbf 293f 0e2f 843f cd0f ba3e 4d51 563f
000000a0: d5f1 713f da80 3abf 1a62 e33e 25f8 2f3f
000000b0: bb6d 083f 9d5d b23e 7501 bb3e 2b07 89bf
000000c0: 4a2c 953e 37dc 9b3e a9f7 57bf 2d7e 6a3f
000000d0: 57ba 89be 038f 413f 4eef 103f 2a4a 173f
000000e0: 4df0 f03e a8d2 2e3f 4f40 933e 4b5a d63e
000000f0: d405 023d 6254 673e 43ae 34bf 4758 0e3f

fc2.weight f4 [64, 64]
0.054329917 0.08115882 -0.03719744 0.062891036 0.061689854 -0.03189145 0.06855588 -0.109274775
-0.0011116117 -0.078486905 0.021264076 -0.08695252 -0.056187347 -0.017447159 -0.044548288 0.06869538
0.02203004 0.102615595 -0.082713634 -0.10385294 0.07650298 -0.047298357 0.076025546 0.052549183
0.11826062 0.1000942 0.024164632 0.016276106 0.050693065 -0.05780618 0.019590303 0.08883113
0.10182612 0.10331729 -0.05792761 -0.05510083 -0.06899826 -0.008303896 -0.091926396 -0.11078431
-0.08192046 0.0034981072 0.11454685 0.10350284 0.021499947 0.03167616 -0.037557825 -0.090217486
0.11364561 0.014193177 -0.073258996 -0.016436443 -0.06498508 -0.095797524 -0.011615068 0.038235113
0.027707905 -0.012886733 0.11363466 0.028153807 -0.041622967 0.082225636 0.04506001 0.07869004
0.060780793 0.07587491 0.10202639 0.106203094 0.05971259 0.05825618 -0.025667205 -0.022559702
0.035652816 -0.015984476 -0.10604711 0.113075465 -0.10585573 0.014153257 0.057159245 -0.02403742
0.0023617446 0.03292063 -0.09031813 0.0038173199 0.0025103837 0.010733992 0.11658318 0.093291834
-0.08129336 0.029437497 0.057392 0.10425842 0.109268785 -0.04646714 0.11322215 0.11314708
0.08843914 0.03193912 -0.093716025 0.040861174 0.05991988 0.035628423 0.10229601 0.035203442
-0.0729157 -0.012558132 0.029449359 -0.06908004 -0.118253484 -0.120045856 -0.0016528517 0.10244453
-0.07460922 -0.07999532 -0.111543685 0.084802926 0.020022795 0.063318044 -0.09184773 -0.06560427
-0.020309225 0.09109853 0.027662516 0.076327056 0.004609123 -0.08121538 0.066172436 0.009968489
-0.058978885 -0.11200276 0.053657904 -0.072340414 0.031130314 0.08515988 0.045218527 -0.07063393
-0.07536192 -0.121895 0.038946435 0.07678901 0.10170099 -0.024754897 0.05983548 0.0045312494
-0.12334739 0.035492584 0.057008654 -0.10171327 -0.0053694695 -0.007350996 0.046230927 0.052827165
0.120484024 0.09301303 -0.041520923 -0.081049845 0.06339222 0.07282466 0.1141877 -0.051259786
0.098727316 0.04211065 -0.118003786 -0.015995696 -0.07875614 -0.10298778 -0.08044338 -0.08461915
-0.12091853 0.054010943 0.0718904 0.047194466 0.112053886 -0.079776555 0.02339974 -0.09426455
-0.08778766 -0.06533249 -0.095269084 0.026415229 0.034288883 0.015409797 -0.021464631 0.11101879
0.013282925 -0.034424305 -0.021857038 -0.038028955 -0.01387924 0.0023496747 -0.0995318 -0.112247765
-0.029777199 -0.038048938 0.01325576 -0.12434897 -0.07969256 0.06609112 -0.0025430769 -0.07097545
0.105815396 0.119244024 0.124358535 0.07878171 0.06372003 0.07831964 0.08102286 -0.09042829
-0.04805334 0.07716201 -0.038414314 0.11310652 -0.020933405 0.10540627 -0.03367065 0.09736009
0.030347362 0.06672658 0.072538584 0.09703389 -0.0045714974 0.10338302 0.039975464 -0.0050158203
-0.0121061355 0.07317427 0.1056841 0.1202739 -0.08539203 0.057543308 0.034902096 0.0006903261
0.123639256 -0.07837522 0.04687701 -0.07025018 0.019991264 0.0591861 -0.11243147 -0.09944467
-0.0718431 0.11706546 -0.028729767 -0.06951 0.1005653 0.092243955 -0.050632104 0.1105341
0.03842576 0.057074204 -0.10289818 -0.02110225 -0.07274915 0.09552528 -0.0039088875 0.10571718
00000000: 0c89 5e3d 9836 a63d 585c 18bd 04cd 803d
00000010: 80ae 7c3d 9ca0 02bd 0667 8c3d 74cb dfbd
00000020: 80b3 91ba bebd a0bd 0032 ae3c 2a14 b2bd
00000030: b424 66bd 58ed 8ebc 4478 36bd 2ab0 8c3d
00000040: 5878 b43c 2028 d23d c465 a9bd dab0 d4bd
00000050: 98ad 9c3d ecbb 41bd 48b3 9b3d d03d 573d
00000060: a032 f23d 30fe cc3d e8f4 c53c 7855 853c
00000070: 88a3 4f3d 2cc6 6cbd d87b a03c 18ed b53d
00000080: 368a d03d 0498 d33d 8045 6dbd 68b1 61bd
00000090: f64e 8dbd 100d 08bc e843 bcbd e2e2 e2bd
000000a0: eac5 a7bd 8040 653b 8a97 ea3d 4cf9 d33d
000000b0: a820 b03c dcbe 013d 3cd6 19bd f2c3 b8bd
000000c0: 08bf e83d 808a 683c d008 96bd b8a5 86bc
000000d0: e616 85bd 7e31 c4bd 204d 3ebc 6c9c 1c3d
000000e0: b0fb e23c e022 53bc 4ab9 e83d d0a2 e63c
000000f0: d87c 2abd ea65 a83d d890 383d 3e28 a13d
00000100: 48f5 783d 4e64 9b3d 36f3 d03d 0281 d93d
00000110: 3095 743d 089e 6e3d 0844 d2bc 20cf b8bc
00000120: b008 123d e0f1 82bc 3a2f d9bd 1c94 e73d
00000130: e4ca d8bd 10e3 673c d01f 6a3d 20ea c4bc
00000140: 80c7 1a3b c8d7 063d b6f8 b8bd 002c 7a3b
00000150: 4085 243b a0dd 2f3c 2ac3 ee3d ca0f bf3d
00000160: 227d a6bd e826 f13c e013 6b3d 7085 d53d
00000170: 50c8 df3d 5454 3ebd 04e1 e73d a8b9 e73d
00000180: 941f b53d 98d2 023d 30ee bfbd 0c5e 273d
00000190: 8c6e 753d 1cef 113d 9280 d13d 7c31 103d
000001a0: d454 95bd a0c0 4dbc c83f f13c d679 8dbd
000001b0: e22e f2bd 9ada f5bd 80a4 d8ba 70ce d13d
000001c0: b8cc 98bd 96d4 a3bd 0471 e4bd 28ad ad3d
000001d0: d806 a43c e4ac 813d aa1a bcbd 885b 86bd
000001e0: 885f a6bc de91 ba3d 809c e23c 5c51 9c3d
000001f0: 2008 973b 4054 a6bd 6a85 873d e052 233c
00000200: d893 71bd b461 e5bd 64c8 5b3d 3627 94bd
00000210: 0005 ff3c 4e68 ae3d 1037 393d 86a8 90bd
00000220: 5a57 9abd 16a4 f9bd 4c86 1f3d 8e43 9d3d
00000230: 9c48 d03d c8ca cabc 0c16 753d e07a 943b
00000240: 8e9d fcbd ac60 113d e881 693d 0c4f d0bd
00000250: 60f2 afbb a0e0 f0bb a45c 3d3d 4c61 583d
00000260: 54c0 f63d 9e7d be3d d811 2abd 76fd a5bd
00000270: c8d3 813d 1825 953d 3edb e93d c8f5 51bd
00000280: 8c31 ca3d 387c 2c3d f8ab f1bd 6809 83bc
00000290: e64a a1bd 42eb d2bd 80bf a4bd ce4c adbd
000002a0: 22a4 f7bd 943a 5d3d 463b 933d fc4e 413d
000002b0: 827c e53d e461 a3bd d0b0 bf3c c60d c1bd
000002c0: 04ca b3bd 0acd 85bd 701c c3bd c064 d83c
000002d0: 8072 0c3d 6079 7c3c 98d6 afbc d25d e33d
000002e0: a0a0 593c 8000 0dbd 880d b3bc 40c4 1bbd
000002f0: c065 63bc 00fd 193b 54d7 cbbd 28e2 e5bd
00000300: 50ef f3bc 34d9 1bbd b02e 593c acaa febd
00000310: da35 a3bd c85a 873d c0a9 26bb 945b 91bd
00000320: beb5 d83d 3636 f43d b0af fe3d 4e58 a13d
00000330: a67f 823d 0c66 a03d 50ef a53d 7832 b9bd
00000340: 94d3 44bd 1e07 9e3d 5458 1dbd 64a4 e73d
00000350: 887c abbc 3edf d73d 3cea 09bd ba64 c73d
00000360: 089b f83c f2a7 883d 1c8f 943d b4b9 c63d
00000370: 80cc 95bb 7aba d33d 50bd 233d c05b a4bb
00000380: d058 46bc 64dc 953d e870 d83d 2a52 f63d
00000390: 04e2 aebd 88b2 6b3d 80f5 0e3d 00f7 343a
000003a0: 9436 fd3d 3083 a0bd 1c02 403d 54df 8fbd
000003b0: b8c4 a33c 206d 723d 7842 e6bd a6a9 cbbd
000003c0: 7a22 93bd 04c0 ef3d b05a ebbc 425b 8ebd
000003d0: 2ef5 cd3d 66ea bc3d 9c63 4fbd b45f e23d
000003e0: 5464 1d3d a4c6 693d 48bc d2bd a0de acbc
000003f0: 82fd 94bd c2a2 c33d 2016 80bb 4082 d83d

fc2.bias f4 [64]
0.0699967 0.0054862946 -0.09640522 -0.093526155 0.11897522 -0.099717125 0.09476255 0.05231847
0.0029265732 -0.112985194 0.09276128 -0.07049197 -0.09556796 -0.06128256 0.020564869 0.1173591
0.0923046 0.029687792 -0.032354504 -0.061330944 0.10708977 0.100150555 -0.06796555 -0.10773438
-0.11790955 0.10288684 0.099502 -0.051923037 0.03339733 -0.020334065 0.021639064 0.041576266
0.10008381 -0.02589339 0.0147114545 -0.10684925 0.119149104 -0.07173039 -0.069057986 0.020513758
0.08357938 0.11756836 -0.110901594 -0.035023972 -0.09328154 0.092507124 -0.11758727 -0.023913696
0.12201683 -0.098694414 0.0198901 -0.055064082 0.063655764 -0.022370026 0.105642855 0.046694607
0.11156477 0.08346526 -0.050710738 0.072716385 -0.013552755 0.07334256 -0.004466206 0.059045807
00000000: 6e5a 8f3d 60c6 b33b 1a70 c5bd a48a bfbd
00000010: 48a9 f33d 7e38 ccbd de12 c23d e44b 563d
00000020: c0cb 3f3b c864 e7bd a0f9 bd3d 185e 90bd
00000030: 22b9 c3bd 6c03 7bbd a877 a83c f859 f03d
00000040: 320a bd3d d033 f33c 2886 04bd 2836 7bbd
00000050: e251 db3d bc1b cd3d 8631 8bbd d8a3 dcbd
00000060: 907a f1bd 56b6 d23d b4c7 cb3d 40ad 54bd
00000070: a4cb 083d a093 a6bc 6844 b13c e04b 2a3d
00000080: bef8 cc3d 601e d4bc 5008 713c c8d3 dabd
00000090: 7204 f43d 62e7 92bd 466e 8dbd 780c a83c
000000a0: aa2b ab3d aec7 f03d 6020 e3bd 4c75 0fbd
000000b0: 640a bfbd 6074 bd3d 98d1 f0bd a8e6 c3bc
000000c0: f6e3 f93d 4c20 cabd 90f0 a23c e08a 61bd
000000d0: f45d 823d 5841 b7bc 485b d83d d842 3f3d
000000e0: 127c e43d d6ef aa3d 10b6 4fbd 54ec 943d
000000f0: 600c 5ebc a034 963d 4059 92bb 04da 713d

fc3.weight f4 [1, 64]
-0.7427942 -0.8370363 0.8694784 0.5884341 -0.80299217 -0.62172556 -0.81412643 -0.86286724
-0.79259104 -0.9624493 0.61311305 0.70300645 0.8919277 0.6379136 -0.8201521 0.6442435
-0.80468565 0.60802156 -0.7991342 -0.926173 0.88354176 -0.84804213 -0.7082172 -0.7862023
-0.75183994 0.8572288 -0.7243662 0.9067917 -0.8039018 0.7031194 0.760848 0.74235225
-0.970486 -0.68540597 0.7345368 1.0172684 -0.8527111 -0.71462697 0.56336415 -0.77372843
-0.7412962 0.92310256 0.6563642 -0.9046161 -1.0285238 0.7144628 0.93750834 0.8076034
0.6884807 0.6715409 -0.8110687 -0.77608454 0.9358651 -0.9557783 0.7818664 0.82692677
0.780016 -0.87821394 0.7825461 0.7683368 0.79005855 0.70932686 0.93572325 0.6720413
00000000: c327 3ebf 0348 56bf 2396 5e3f 9ea3 163f
00000010: e590 4dbf 6829 1fbf 976a 50bf dee4 5cbf
00000020: 3fe7 4abf 1463 76bf faf4 1c3f 3bf8 333f
00000030: 6055 643f 4e4e 233f 7df5 51bf 24ed 243f
00000040: e1ff 4dbf 4da7 1b3f 0f94 4cbf ac19 6dbf
00000050: cb2f 623f 4a19 59bf b94d 35bf 8e44 49bf
00000060: 9578 40bf 5973 5b3f 1070 39bf 8023 683f
00000070: 82cc 4dbf a2ff 333f efc6 423f cc0a 3e3f
00000080: c571 78bf c476 2fbf 9b0a 3c3f da35 823f
00000090: 464b 5abf cbf1 36bf a238 103f 1113 46bf
000000a0: 96c5 3dbf 7350 6c3f 7c07 283f ec94 67bf
000000b0: aba6 83bf 09e7 363f 8c00 703f 19bf 4e3f
000000c0: 4540 303f 1bea 2b3f 33a2 4fbf 7aad 46bf
000000d0: db94 6f3f e3ad 74bf 6528 483f 79b1 533f
000000e0: 21af 473f a1d2 60bf f154 483f b8b1 443f
000000f0: 4741 4a3f 7296 353f 8f8b 6f3f e60a 2c3f
