tic_tac_toe_model_position.pth (torch, 21800 bytes, 4 tensors)

fc1.weight f4 [256, 9]
0	0x3fcd44b6	1.6036594
1	0x3f40a376	0.7524942
2	0xc0328d37	-2.789869
3	0x3fc5079b	1.5392946
4	0x3fa61152	1.2974036
5	0x40140610	2.31287
6	0x3f562ba1	0.8366032
7	0x3f5e0b3e	0.86735904
8	0x40186291	2.381016
9	0xc039ad53	-2.9012039
10	0x4045325d	3.081199
11	0xbf053dae	-0.5204724
12	0xbed32825	-0.41241565
13	0x3f669c14	0.90081906
14	0xbf399922	-0.7249929
15	0xbf419e61	-0.7563229
16	0xc004650e	-2.068668
17	0x3ff5b7af	1.9196681
18	0xbe69dc9e	-0.22838065
19	0x3fdef5ac	1.7418723
20	0xbea10fd6	-0.31457394
21	0x402ce597	2.701513
22	0xbfe2d40c	-1.7720962
23	0x3e8268e5	0.25470653
24	0xbe6a562e	-0.22884437
25	0xc080f55c	-4.029951
26	0x3f42434e	0.7588395
27	0x3fc134f4	1.5094285
28	0x3f77bc72	0.9677192
29	0x3f0a8349	0.54106575
30	0xc0402b2d	-3.0026352
31	0x3e0e8cbd	0.13920875
32	0xc02cdc40	-2.700943
33	0x4044f940	3.077713
34	0xbe32af28	-0.1744963
35	0x3e93183f	0.28729436
36	0x3f58a1ab	0.84621686
37	0x40098f3a	2.1493669
38	0x3f062808	0.5240483
39	0xbf692c54	-0.91083264
40	0x3e7e6221	0.2484212
41	0x3fed3236	1.8530948
42	0x4032925a	2.7901826
43	0x3fc79db4	1.5595002
44	0xc041151b	-3.0169132
45	0x402f0e7b	2.7352588
46	0xc04b6538	-3.178053
47	0xc0404889	-3.0044272
48	0xbf98d619	-1.1940337
49	0xbfe0694a	-1.7532132
50	0xbf595005	-0.84887725
51	0xbecde1df	-0.40211388
52	0xbd737a0a	-0.059442557
53	0xbf82d01d	-1.0219761
54	0xc023f982	-2.5621037
55	0xbe89af49	-0.26891544
56	0x3fa83973	1.3142532
57	0xc00263c9	-2.0373404
58	0xbf2d1d85	-0.6762317
59	0xc00c0ce1	-2.188286
60	0x3d022b47	0.031779554
61	0xbf2a40ab	-0.66504925
62	0xbd0b6722	-0.034033902
63	0x402338b3	2.5503356
64	0xc014394a	-2.3159966
65	0x3e98d516	0.29850072
66	0xc0209ece	-2.5096927
67	0x3f952009	1.1650401
68	0x40642f74	3.5653963
69	0xc004bc7d	-2.0740044
70	0x3d1ab776	0.03777262
71	0x40704eb8	3.7548046
72	0x3f59a19f	0.8501224
73	0x3fc8b656	1.5680645
74	0xc02587e0	-2.5864182
75	0xbea3aee5	-0.3196937
76	0xbf9838cb	-1.1892332
77	0x403279a9	2.7886755
78	0xbfb8693d	-1.4407116
79	0x3f185b83	0.59514636
80	0xbf340aa5	-0.7032874
81	0xc0004512	-2.0042157
82	0xbe94aab5	-0.2903649
83	0xbeeb6978	-0.45978904
84	0x3f9261e2	1.1436121
85	0x3edf7638	0.4364488
86	0xbe1c7809	-0.15280165
87	0xc0517bb3	-3.273175
88	0x3f982317	1.1885709
89	0xbf5d87a7	-0.86535114
90	0x4059eadc	3.4049597
91	0xbf0d0c35	-0.5509675
92	0x3ea75bab	0.32687125
93	0xbfa27db6	-1.2694614
94	0xbef50f32	-0.47863156
95	0xbeb4dfe3	-0.35327062
96	0x3f1f11f3	0.62136763
97	0xc05cdb66	-3.450891
98	0x400182db	2.0236118
99	0x3f4438f0	0.7664938
100	0xbe3e9244	-0.18610483
101	0x3e727ce5	0.23680456
102	0xbfbe083f	-1.4846267
103	0xbf87dd07	-1.0614327
104	0xc030f5ec	-2.7650099
105	0x403d8dee	2.9617877
106	0x3e71a742	0.2359896
107	0xbfa9d4c1	-1.3268052
108	0xbfc71478	-1.5553122
109	0xc0581ac5	-3.376634
110	0xc03cff79	-2.9530928
111	0x40192ace	2.3932376
112	0xc0388d0a	-2.8836083
113	0xbf7d3075	-0.98902065
114	0xbf320c32	-0.6954986
115	0xbfb7c272	-1.4356215
116	0x3fcb1f83	1.5868992
117	0x4007dd14	2.1228685
118	0x40143400	2.3156738
119	0x3fd914f2	1.6959517
120	0x3f94737d	1.1597744
121	0xbf92a118	-1.1455412
122	0x3e479baa	0.19492975
123	0x401fc96e	2.4966693
124	0x400596db	2.0873325
125	0xbf300074	-0.6875069
126	0xc0290463	-2.6408927
127	0x3f7da3e6	0.99078214
128	0x3e44eb93	0.1923049
129	0x3f4022bb	0.75052994
130	0x404663db	3.0998447
131	0xbfc8d7c7	-1.569085
132	0x3f6350ec	0.8879535
133	0x3f099ff0	0.5375967
134	0x4047884e	3.1176944
135	0x3eeb445d	0.45950595
136	0x40165a53	2.349263
137	0xc005499b	-2.0826175
138	0xc081f370	-4.0609665
139	0xbfc0104e	-1.5004976
140	0xc008e50a	-2.1389794
141	0x3f69b722	0.91295063
142	0xbfef5635	-1.8698183
143	0x3fa79ab0	1.3094082
144	0xbf56b3ad	-0.83867913
145	0xbf9a7143	-1.2065815
146	0xbfde6026	-1.7373092
147	0xbfceb784	-1.6149755
148	0xbfd4abf6	-1.6614978
149	0x406d1cdd	3.7048867
150	0xbfba2e62	-1.4545405
151	0xbf35a076	-0.7094797
152	0xc00ef49a	-2.2336793
153	0xc0319bb6	-2.7751288
154	0xbfa133e9	-1.2593967
155	0x3f76f8b3	0.96473235
156	0xbfc45ee1	-1.5341455
157	0x3fd6624e	1.674875
158	0x3f93fb0f	1.1560992
159	0xbffcd5f8	-1.9752798
160	0xc0367379	-2.850798
161	0x403c5619	2.942755
162	0xbf48370b	-0.7820899
163	0xbeacff4a	-0.3378852
164	0x4032adc0	2.7918549
165	0xbef7b3bf	-0.48379323
166	0xc0446b8f	-3.0690649
167	0xbf55fcbb	-0.8358876
168	0xc0596f95	-3.3974354
169	0x3eb9dbbf	0.36300465
170	0xbfbeebf8	-1.4915762
171	0xc0209738	-2.5092297
172	0x3bf60347	0.007507715
173	0x3f8218a3	1.0163769
174	0x3ef1ad6c	0.47202623
175	0x3fe7210f	1.8056964
176	0x3ff77cbb	1.933494
177	0x3fb4441c	1.4083285
178	0x3ffd7fe3	1.9804653
179	0x3daf607c	0.08563325
180	0x3fac502a	1.3461964
181	0x3f7f6a1b	0.9977128
182	0x3f933c29	1.1502734
183	0x3f09e0ad	0.53858453
184	0x3f6bd745	0.9212535
185	0x3f12e6fc	0.57383704
186	0x40313f58	2.7694912
187	0xc0317fae	-2.773418
188	0x4049873e	3.1488795
189	0xc0725855	-3.7866414
190	0x3f70811a	0.93946993
191	0xbf05d7b7	-0.5228228
192	0x3f7ab962	0.9793912
193	0x3feacbf2	1.8343489
194	0xbeb0d47e	-0.3453712
195	0x3fe8bf55	1.818339
196	0x402ab680	2.667389
197	0x3fd201ea	1.6406834
198	0x3fbebb3d	1.490089
199	0xbdabcb3c	-0.08388373
200	0xc083940a	-4.111821
201	0xbf33376e	-0.70006454
202	0x3e99258d	0.2991146
203	0x4075fcf7	3.8435647
204	0xbffb7be2	-1.9647181
205	0x3f4e89c4	0.80678964
206	0x3ff1c01b	1.8886751
207	0x401cdbe3	2.4509208
208	0x3d7cf7fe	0.06175994
209	0xbf3e2cb5	-0.7428697
210	0x406c6762	3.69381
211	0x3f34f794	0.70690274
212	0xbc716adc	-0.01473495
213	0xc02d2c02	-2.705811
214	0x3ec2f7ab	0.3807958
215	0xbf96f110	-1.1792316
216	0x401cbbe5	2.4489682
217	0x3f3d2794	0.73888516
218	0x401027e9	2.252436
219	0x3fb46978	1.4094687
220	0x3f6fd8b4	0.9369004
221	0x3ffd679f	1.9797248
222	0xc00a5ff5	-2.1621068
223	0x3ec17281	0.37782672
224	0x4021b2f3	2.5265472
225	0x3ffb9121	1.9653665
226	0xbf26f5d9	-0.65218884
227	0xbfe91d1d	-1.821201
228	0xbf203566	-0.6258148
229	0x3dacb346	0.08432631
230	0xc0088460	-2.1330795
231	0x3e391009	0.18072523
232	0x40320833	2.7817504
233	0xbfb6cbfc	-1.4281001
234	0x3ff1c78e	1.8889024
235	0x3ecf795a	0.4052227
236	0xc085c2d6	-4.1800337
237	0x3f6799fa	0.90469325
238	0x3e239138	0.15973365
239	0x4015ecac	2.3425703
240	0x3faeac7f	1.3646392
241	0x4079f969	3.9058478
242	0x3f2302cc	0.6367614
243	0xc055e4ab	-3.3420818
244	0x4039e6e6	2.904718
245	0x4044cf79	3.0751631
246	0x3f9931d3	1.196833
247	0x3eab5540	0.33463478
248	0x3f763d5f	0.96187395
249	0x3f69ccec	0.9132831
250	0x3c8cf2f6	0.017205697
251	0x3f260f59	0.6486717
252	0x3e5c2bac	0.21501034
253	0x3f07b318	0.5300765
254	0x405036a3	3.2533348
255	0x3fbb48d7	1.4631604

fc1.bias f4 [256]
0	0x3b99ffe3	0.0046996935
1	0x3f8e99c4	1.1140676
2	0x3ef85f59	0.48510244
3	0x3e988e53	0.29796085
4	0x3ebd6f8a	0.3699916
5	0x3fbb5ee7	1.4638337
6	0x3fb8d0e3	1.4438747
7	0x3fb49adb	1.4109758
8	0x3fa5273d	1.29026
9	0x3f095fd6	0.5366186
10	0x3ee7c140	0.45264626
11	0x3fbc21e9	1.4697849
12	0x3f1050da	0.5637337
13	0xbfd671fa	-1.6753533
14	0xbe4188fa	-0.18899909
15	0x3f851c74	1.0399308
16	0x3c148f96	0.009067437
17	0x3edd77fa	0.43255597
18	0x3bb21e24	0.005435722
19	0xbf882664	-1.0636716
20	0x3f4e11ac	0.80495715
21	0x3f2097f9	0.6273189
22	0x3de105f6	0.10987465
23	0x3e75efce	0.2401726
24	0xbfa72316	-1.3057582
25	0x3f6e950a	0.93196166
26	0x3e672404	0.22572333
27	0x3eddc54a	0.43314582
28	0x3e66b4a0	0.2252984
29	0x3e5e0fe2	0.21685746
30	0x3f109c41	0.56488425
31	0x3dcd0fcd	0.100127794
32	0xbf450682	-0.76963055
33	0x3f969223	1.1763347
34	0x3fbc8e55	1.4730936
35	0x3f2fc7c0	0.6866417
36	0xbca9a2fa	-0.020707596
37	0xbf840ae8	-1.0315828
38	0x3ef94435	0.4868485
39	0xbda7eb87	-0.0819922
40	0x3fbdf0d1	1.4839116
41	0x3f22cb35	0.6359132
42	0x3eeb0654	0.45903265
43	0xbe0abcc0	-0.13548565
44	0xbeb088fc	-0.3447951
45	0x3e93cbcb	0.2886642
46	0x3f562de9	0.83663803
47	0x3fd1f4b7	1.6402806
48	0xbfb977ae	-1.4489648
49	0x3e3f04c5	0.18654163
50	0x3fbfb788	1.4977884
51	0x3ecb266b	0.39677748
52	0xbe9e11d9	-0.30872992
53	0xbf8e6d25	-1.1127058
54	0x3fcaba5d	1.5838124
55	0x3e393615	0.18087037
56	0xbe8eeac0	-0.27913475
57	0x3fdf73cb	1.7457212
58	0x3ff6e68a	1.9289105
59	0x3f36dcff	0.71430963
60	0x3f649e84	0.89304376
61	0x3fdd445a	1.7286484
62	0xbe61a834	-0.2203682
63	0x3e8a63ff	0.27029416
64	0x3f1ccc0a	0.6124884
65	0x3f8314ec	1.024076
66	0x3f60935a	0.8772484
67	0xbe5732d1	-0.21015479
68	0xbd4dffba	-0.050292708
69	0xbef0c5f6	-0.47026032
70	0x3f86b618	1.0524321
71	0xbfc3bb65	-1.5291563
72	0xbfcf751e	-1.6207616
73	0xbf110576	-0.5664896
74	0xbf36d069	-0.7141176
75	0xbf0eb4eb	-0.5574481
76	0x3e8c824a	0.27443153
77	0xbf51f462	-0.82013524
78	0x3eed97c3	0.46404848
79	0xbd366cf8	-0.044537514
80	0x3f76c93b	0.96400803
81	0xbed6d5e3	-0.41960058
82	0x3cf234f8	0.029566273
83	0x3f69e7f8	0.9136958
84	0xbf4632e5	-0.7742141
85	0x3f9e5f99	1.2372924
86	0x3eb692a5	0.35658756
87	0xbe8a076d	-0.2695879
88	0xbe4b4c68	-0.19853365
89	0x3e9b12ff	0.3028793
90	0xbf21a065	-0.6313537
91	0x3f6aa412	0.916566
92	0xbecd7843	-0.40130815
93	0x3ff07382	1.878525
94	0xbeaf805e	-0.34277624
95	0xbf1370a4	-0.5759375
96	0xbfae5d15	-1.3622156
97	0x3eef8ca0	0.46786976
98	0xc014a1b9	-2.3223708
99	0x3f2734a9	0.6531473
100	0x3fc1698d	1.5110337
101	0x3fb7cb81	1.435898
102	0x3e095da2	0.13414624
103	0x3f7e08c5	0.9923213
104	0xbf8e71cb	-1.1128477
105	0x3ff232d1	1.8921758
106	0x3f01d5c1	0.5071679
107	0x3fd81d45	1.6883932
108	0x3ef113cf	0.47085425
109	0xbf54b0ff	-0.83082575
110	0x3e3ffa5e	0.18747851
111	0x3fb59412	1.4185812
112	0xbe2dc52c	-0.16969746
113	0x3ee734e0	0.45157528
114	0x3f200995	0.6251462
115	0x3fa40a67	1.2815675
116	0xbf8c6d40	-1.097084
117	0x3f871c22	1.055546
118	0xbe32fcb5	-0.17479213
119	0xbf3c3c56	-0.73529565
120	0x3f67156e	0.90267074
121	0xbf1852b1	-0.5950118
122	0xbe807fd9	-0.2509754
123	0x3f1e66cc	0.61875606
124	0x3f5eb316	0.86992013
125	0xbfeaaada	-1.833339
126	0x3ea9a565	0.33134
127	0xbe3df97e	-0.18552205
128	0x3f7c5305	0.9856418
129	0x3f2a7a46	0.66592824
130	0xbe35c28b	-0.17749994
131	0x3f295bd4	0.66155744
132	0xbd5c871a	-0.05383978
133	0x3ff10712	1.8830283
134	0x3fbbc62a	1.466985
135	0x3e027355	0.12739308
136	0xbf0536d0	-0.5203676
137	0x3f90c3ea	1.1309788
138	0x3f8c8529	1.0978137
139	0x3f8db5f1	1.1071149
140	0x3f60dec3	0.8783991
141	0x3fa088d8	1.2541761
142	0xbfa7cc95	-1.3109308
143	0x3f6722ce	0.9028748
144	0x3cd3bb6b	0.025846204
145	0xbf8681ee	-1.0508401
146	0xbf0d9df1	-0.55319124
147	0x3fcedf08	1.6161814
148	0xbdc953b6	-0.0983042
149	0x3fb5951f	1.4186133
150	0xbf9dd45c	-1.2330432
151	0xbebb7cba	-0.36618596
152	0xbfa784aa	-1.3087361
153	0xbfae247c	-1.3604884
154	0xbe991c2b	-0.29904303
155	0x3e583ace	0.21116182
156	0x3f8e8260	1.1133537
157	0x3f5a4381	0.8525925
158	0x3fcb0ed5	1.5863901
159	0xbf2aa4d5	-0.66657764
160	0xbf23b345	-0.6394542
161	0xbf76c8ef	-0.9640035
162	0x3ead3628	0.3383038
163	0x3fb3c640	1.4044876
164	0xbf4c5917	-0.7982344
165	0x3fba4c0f	1.4554461
166	0x3e29fb4b	0.16599767
167	0x3fdf32ae	1.7437341
168	0x3fb97153	1.4487709
169	0x3f066efa	0.52513087
170	0xbf3614b1	-0.7112532
171	0x3fa1e4cb	1.2647947
172	0x3f8ee0a0	1.11623
173	0xbeaa00cc	-0.33203733
174	0x3faddf0b	1.3583692
175	0x3d90d033	0.07070961
176	0xbecd9ab4	-0.40157092
177	0x3f9e1c2e	1.235235
178	0x3f802b50	1.0013218
179	0xbf643cfe	-0.89155567
180	0x3f027473	0.5095894
181	0xbf355116	-0.7082685
182	0x3dd7c87a	0.10536285
183	0x3fd9d9bc	1.7019572
184	0xbf242200	-0.6411438
185	0x3f28bf7a	0.6591717
186	0x40122dd4	2.2840471
187	0x3fbf9c18	1.4969511
188	0x3fc139f8	1.5095816
189	0x3ee97ed6	0.4560458
190	0x3fc2c462	1.5216181
191	0xbe1d1a28	-0.15342009
192	0x3faf6413	1.3702415
193	0xbe30aa2d	-0.17252417
194	0xbe7e6a15	-0.24845155
195	0x3efdb7b2	0.4955421
196	0xbec23e09	-0.37937954
197	0x3da2d00f	0.0794984
198	0xbdd30a3c	-0.103046864
199	0xbfc24f0b	-1.5180372
200	0x3f11d425	0.5696433
201	0x3d812f37	0.06307834
202	0xbff0c72e	-1.8810785
203	0x3ea71f46	0.32641047
204	0xbe8d6b6b	-0.27621016
205	0xc057f368	-3.3742313
206	0xbf42df2f	-0.761218
207	0xbc984a6b	-0.018590173
208	0x3fc20958	1.5159101
209	0xbf622114	-0.88331723
210	0x3f8ea37b	1.114364
211	0x3f436205	0.7632144
212	0x3ee6fa67	0.45112917
213	0xbdf23740	-0.11826944
214	0x3eef72c8	0.4676726
215	0x3d45a9b5	0.04825755
216	0xbfb098c4	-1.379662
217	0xbdf35b5b	-0.11882659
218	0x3f9373ab	1.1519674
219	0x3f24a22a	0.6430994
220	0x3fd384d3	1.652491
221	0xbe2086c8	-0.15676415
222	0xbd155890	-0.036461413
223	0xbee4d80c	-0.4469608
224	0xbf54fddd	-0.83199865
225	0xbe6cf94d	-0.23141976
226	0x3eca402b	0.3950208
227	0x3c98c221	0.018647255
228	0xbfc9db6a	-1.5770085
229	0x3f4030f9	0.75074726
230	0xbf4948b4	-0.7862656
231	0x3f90a8f8	1.1301565
232	0xbf98e63b	-1.1945261
233	0x3e45db06	0.19321832
234	0xbeddfe81	-0.43358234
235	0x3f88a512	1.0675375
236	0x3cc6dfd1	0.024276646
237	0x3e1ce50e	0.15321752
238	0xbf6344e9	-0.88777024
239	0xbfc795cd	-1.559259
240	0x3ec4556b	0.3834642
241	0xbfaf24f2	-1.368315
242	0x3f4d0d58	0.80098486
243	0x3f52c37c	0.82329535
244	0xbc45dc01	-0.012076379
245	0x3eb1df0c	0.34740484
246	0xbeec8cbb	-0.4620112
247	0x3f26c0b5	0.651378
248	0x3fc1aa53	1.5130104
249	0xbf2996ad	-0.6624554
250	0x3f198c22	0.5997945
251	0x3d91ae37	0.07113307
252	0x3f33ba86	0.7020649
253	0x3f8bec64	1.0931516
254	0xbf699037	-0.9123568
255	0x40011c45	2.0173504

fc2.weight f4 [9, 256]
0	0x3f27eca8	0.65595484
1	0x3eefb2a1	0.4681597
2	0xbd8aa775	-0.06770221
3	0x3f798574	0.9746926
4	0xbf3c5dee	-0.73580825
5	0xbefd4088	-0.49463296
6	0x3f051658	0.5198722
7	0x3efcfb36	0.4941041
8	0x3f0d3790	0.55162907
9	0xbfcc2725	-1.5949446
10	0xbed0a5f8	-0.40751624
11	0x3f2c96bd	0.6741751
12	0xbfc3116b	-1.523969
13	0x3f8615f4	1.047545
14	0xbfe6db60	-1.8035698
15	0x3ec4d305	0.38442245
16	0xbfaeafbb	-1.3647379
17	0xc00cfff7	-2.2031229
18	0x3f79b7eb	0.9754626
19	0xbfd67c2c	-1.6756644
20	0x3eb4ff0b	0.35350832
21	0xbf46bf33	-0.77635497
22	0x3f9926b9	1.1964942
23	0xbec716a1	-0.38884452
24	0xbec7329b	-0.38905796
25	0xbeb5c9ca	-0.35505515
26	0x3dd9f43e	0.106422886
27	0xc00d88f5	-2.2114842
28	0x3f2d6078	0.67725325
29	0xbf1719a1	-0.5902348
30	0xc0184f7a	-2.3798509
31	0xbf8cddbd	-1.1005169
32	0x3f3e8e85	0.7443622
33	0xbeb5f47d	-0.35538092
34	0xbfcba009	-1.5908214
35	0xbfdfa680	-1.7472687
36	0x3fb732b7	1.4312352
37	0x3ffe635a	1.987407
38	0x3fa02bd5	1.2513376
39	0x3f71613e	0.94289005
40	0x3f61c977	0.88198036
41	0x3f743796	0.9539732
42	0xbf909ffa	-1.1298821
43	0xbee8c0cc	-0.45459592
44	0x3f4786fc	0.77940345
45	0xbf2c1b56	-0.6722921
46	0xbf1d76ad	-0.6150921
47	0x3fa0452d	1.2521111
48	0xbede9540	-0.43473244
49	0xc034b5a5	-2.8235867
50	0x3e445c67	0.19175874
51	0x3d922c3d	0.07137344
52	0x3f1c2953	0.61000556
53	0x3f08bad6	0.5341009
54	0x3f7b6fc9	0.98217446
55	0x3f7d2377	0.9888224
56	0xbeb8be1d	-0.36082545
57	0x3f0223da	0.50835955
58	0x3fd75dcc	1.68255
59	0x3ee0676d	0.43828908
60	0xbebefeea	-0.3730386
61	0x3fb85e24	1.440373
62	0x3e909753	0.2824045
63	0xbfb5d233	-1.4204773
64	0xbfbbdb9b	-1.4676393
65	0xbf207f33	-0.6269409
66	0xbdff5350	-0.124670625
67	0xbf9f0c34	-1.2425599
68	0xbff66ef4	-1.925261
69	0x3fa0bcb5	1.2557589
70	0x3fa91aad	1.3211266
71	0xc0275147	-2.6143358
72	0x402edbbe	2.732162
73	0x3f3b6a9c	0.7320955
74	0xbe3c0213	-0.18360166
75	0xbfeeec53	-1.866587
76	0xbff89a1e	-1.9422033
77	0x3ea177ef	0.31536815
78	0xc00095e0	-2.0091476
79	0x3f17cf48	0.5930066
80	0x3f15b533	0.58479613
81	0xbda19e76	-0.07891552
82	0xbf3dfce4	-0.74214005
83	0xbc77b522	-0.015118869
84	0xbeee2eee	-0.4652018
85	0xbf3be947	-0.7340283
86	0xc010e43b	-2.26393
87	0xbfacc22b	-1.3496755
88	0xbe578d2f	-0.21049951
89	0x3f2c8fba	0.6740681
90	0x3f89c747	1.076394
91	0xbe301efe	-0.17199323
92	0x3f31e8f8	0.6949611
93	0xbf105f77	-0.5639567
94	0xbf4d8c49	-0.80292183
95	0xbf751664	-0.9573729
96	0x4009efc8	2.15526
97	0xbf5dbcc3	-0.8661615
98	0xc0736960	-3.8033066
99	0x3f9463cd	1.1592957
100	0x3fa23b95	1.2674433
101	0x3f0af63b	0.5428197
102	0xbecde0eb	-0.4021066
103	0x3fc37961	1.5271417
104	0xc00831be	-2.128036
105	0xbeebe2f2	-0.46071583
106	0xbf8ee3f0	-1.1163311
107	0x3e9d8e94	0.3077284
108	0x3f1250ff	0.5715484
109	0x3f68c90c	0.90931773
110	0xbd8bc47d	-0.068245865
111	0xbf6a2e8c	-0.91477275
112	0xbfde8498	-1.7384214
113	0x3f8f6771	1.1203443
114	0xbf4d43e6	-0.8018173
115	0x3eb0a881	0.34503558
116	0xbf983bf1	-1.1893293
117	0xbea00a8f	-0.31258056
118	0xbf2e1ec7	-0.6801571
119	0xbfec3fe6	-1.8457
120	0xc005c737	-2.090284
121	0x3f1f4708	0.6221776
122	0xbf4fdf99	-0.8120056
123	0x3f2f0e7d	0.6838148
124	0x3e1bb370	0.15205169
125	0x3fe8fbf8	1.8201895
126	0xbfcf3367	-1.6187562
127	0x3ffe6f88	1.9877787
128	0xbe93337f	-0.28750226
129	0xbf3cd9b6	-0.737697
130	0x3e1d0839	0.15335168
131	0x3fdbf119	1.7182952
132	0xbfb976a2	-1.4489329
133	0xbec98632	-0.39360195
134	0x3f42db20	0.7611561
135	0x3e0b8887	0.136263
136	0x3f0add22	0.5424367
137	0x3f7456e9	0.95445114
138	0xc014ce90	-2.3251076
139	0xbfb50b3f	-1.4144057
140	0x3fb7578e	1.4323595
141	0x3f3117bc	0.6917684
142	0xbfa4f5bd	-1.2887493
143	0x3e43eacd	0.19132538
144	0x3e1214f1	0.14265801
145	0x3f5ec61f	0.8702106
146	0xc008ab86	-2.135469
147	0xbf488e21	-0.7834187
148	0x3f723c6c	0.94623446
149	0x3f1fdf1a	0.624498
150	0xbf53890c	-0.8263099
151	0x3df70d91	0.120631345
152	0x3fa23e3a	1.267524
153	0xbda983af	-0.0827707
154	0xbdd711e0	-0.10501456
155	0xbf649465	-0.8928893
156	0x3f43e98b	0.76528233
157	0x3eb906f6	0.36138123
158	0xbf3c711b	-0.73610085
159	0xbe9d7921	-0.30756477
160	0x400c048d	2.1877778
161	0xbf1ac1f2	-0.6045219
162	0x3e6bd86e	0.2303178
163	0x3edae4ad	0.4275259
164	0xbe127f05	-0.14306267
165	0x3df177ae	0.11790405
166	0x3f9bf3c5	1.2183768
167	0xb9952a94	-0.00028451218
168	0x3f02eee0	0.51145744
169	0x3cb9735b	0.022638014
170	0xbe741da4	-0.23839432
171	0xbebce27d	-0.36891547
172	0xbf15ede9	-0.5856615
173	0x3e4ed226	0.20197353
174	0x3f8183c6	1.0118339
175	0xbf5174a4	-0.81818604
176	0xc019287e	-2.3930964
177	0x3eef1aca	0.46700126
178	0x3ea7ce5d	0.3277463
179	0xbe3d187c	-0.18466371
180	0x3f05a798	0.5220885
181	0xbf2f015e	-0.6836146
182	0xbe9812b7	-0.29701778
183	0x3f9326de	1.1496236
184	0x3f5170ce	0.8181275
185	0xbf0b41c4	-0.54397225
186	0x3f3a9b9c	0.7289369
187	0x3f0f64c2	0.5601312
188	0xbec0c69e	-0.37651533
189	0xbefeca32	-0.49763638
190	0xbf2c0d45	-0.6720775
191	0x3fb6c27f	1.4278105
192	0x3eaefe6c	0.34178483
193	0x3ece3f42	0.40282637
194	0x3f49ab23	0.7877676
195	0xbf9f14e7	-1.2428254
196	0xbddda9cb	-0.10823401
197	0x3f32f6d4	0.6990788
198	0xc00269bf	-2.0377042
199	0x3f10c73a	0.56553996
200	0x3d71ba3f	0.05901551
201	0x3fb8d098	1.4438658
202	0x4031397a	2.769133
203	0x3f9c06c3	1.2189564
204	0x3f4b8313	0.7949688
205	0x401359f9	2.3023665
206	0x3eebda7b	0.46065125
207	0xbf25db21	-0.6478749
208	0x3fafeeb0	1.3744717
209	0xbded7e1f	-0.11596321
210	0x3ece7a02	0.4032746
211	0xbf0a44a8	-0.5401101
212	0xc00c6a3a	-2.1939836
213	0x3fb67fef	1.4257792
214	0xbfb0a889	-1.3801433
215	0xbf702cd1	-0.93818384
216	0x3f7d9467	0.9905457
217	0xbfa64684	-1.299027
218	0xbf076caa	-0.52900183
219	0xbf98b3a3	-1.1929821
220	0x3c023afe	0.007948635
221	0xbf11bc6d	-0.5692814
222	0xbf6a62cf	-0.9155702
223	0xbfa282a5	-1.269612
224	0x3e9dcf50	0.3082223
225	0x3f24a923	0.6432058
226	0x3ef440df	0.47705743
227	0x3f6a5678	0.9153819
228	0x3c372363	0.01117787
229	0x3f05dff3	0.52294844
230	0x3e6d3d73	0.23167972
231	0x3f18942e	0.59601104
232	0x3f97f7bc	1.1872478
233	0xbd37f3d3	-0.044910263
234	0x3ec22578	0.3791921
235	0xbf714a73	-0.94254225
236	0xbfa8a445	-1.3175131
237	0xbea997f8	-0.33123755
238	0x3fc139f8	1.5095816
239	0x3fe5ffa1	1.7968637
240	0xbeda7fd4	-0.4267565
241	0x3fba249a	1.454242
242	0xbf246988	-0.6422353
243	0x3f160044	0.58594155
244	0xbf4c0160	-0.796896
245	0xbf9f6dea	-1.2455418
246	0x3fea96a0	1.8327217
247	0x3fba52f1	1.4556562
248	0xbf0bc8b0	-0.546031
249	0xbfcdefbd	-1.6088787
250	0xbf6e6462	-0.9312192
251	0xbf88f612	-1.0700095
252	0x3f0bc0a2	0.5459081
253	0x3f04f30b	0.51933354
254	0xbcc7b0c9	-0.02437629
255	0x3edea779	0.43487146

fc2.bias f4 [9]
0	0x3e4abe78	0.1979922
1	0xbd83df72	-0.06439103
2	0x3e29a33b	0.16566174
3	0x3db5c41d	0.08875296
4	0x3dc53c24	0.096306115
5	0x3d566928	0.05234638
6	0x3e3ca008	0.18420422
7	0xbcdc1cd9	-0.026869224
8	0x3e0a16bd	0.13485236
