tic_tac_toe_model_position.pth (torch, 21800 bytes, 4 tensors)

fc1.weight f4 [256, 9]
00000000: f7ec e5bf 5801 1540 c676 493e 134e 03bf
00000010: 1442 873e 67da cb3f f41c 66bf dfe6 82bf
00000020: 3c1c 1fbf fb6a 29c0 834e b8bf e9af 76be
00000030: f3c3 d43f b329 a6be 22e1 d03f 0d89 c43f
00000040: 7d5d c7bd 67b3 66bf 79d5 9f3f 9507 5d3f
00000050: 1074 b3bf 5644 f73f abc9 9d3f aea1 8fbf
00000060: 1920 88bf 0113 373f b7cc c03f e9e5 d03f
00000070: 82a4 f63f 7ba2 113f d4b4 9b3f 7258 e1bf
00000080: f492 13c0 3fa3 a4be b353 26c0 3217 b5bf
00000090: bd27 59bf 23ab 28c0 8e67 3cbf 4790 99bf
000000a0: 6055 0cc0 3046 2a40 933c d83e d6fc d2bf
000000b0: 1628 e4bf a19c 15c0 f9ed 133f eab9 5f3e
000000c0: 156a bfbd 3b5c 913f e410 29c0 6045 d33f
000000d0: 17d5 0c40 fb81 3a3f 9abc 953f b0d7 94bf
000000e0: 5f7c 05c0 e895 d83f 1592 943f a099 0b40
000000f0: bc15 c93d 0309 fcbf 7d89 a63f 9fa1 d1bf
00000100: ec15 54bf 56c2 b03f 7483 933e 3ca3 113f
00000110: 2f1e db3f 01cc 90bf a34b e4bf 0c31 22c0
00000120: f6e9 a03f afb2 083b 4493 223f 6172 13bf
00000130: c28f 913f 17fd bcbf 6c7f 4f3f 19b3 7bbf
00000140: e24a 20c0 934b 09bf 47ae 2dc0 cc03 08c0
00000150: 6d3a 39bf 412d b03f e58c fc3f 037a 963d
00000160: 5501 00c0 4f88 2b3f 6da1 1740 aa16 efbf
00000170: d0a2 543e c8e2 84c0 284b a23c 8c44 a0bf
00000180: 7960 d33f ad9b 74bf 3916 db3f 0c54 08c0
00000190: 2a43 64be c91a 20be 5a99 833f 4f36 0040
000001a0: bf14 53be f35a b63e 4c87 893f 5ec1 ed3f
000001b0: 9a09 91bc d17d 1cbf 52d0 1dbf 8369 22bf
000001c0: 1e43 1bc0 f7d4 8abf a644 94bf 3584 8ebf
000001d0: 7b2c 1840 795b 0fbf 0069 a3bd 2c49 3140
000001e0: ef92 76c0 b324 353e 4509 0ac0 cb2a d1bf
000001f0: 7901 653f 468a 9a3f 2d67 1a40 fa45 36bd
00000200: 4569 15c0 730b 80bf 7302 82bf 0712 bbbf
00000210: 8aac 4d3f 99a9 2040 eec6 89bf 10e6 2640
00000220: 8259 b83e ef64 b33f edd6 95bf e434 a4bc
00000230: 8d25 cbbf 3ae8 9f3f e0c4 34c0 9af0 cb3f
00000240: 548f d2bf 04dd 1ac0 1aa5 623e 5573 b13e
00000250: 5734 8cbe 7c82 dbbe ec82 f3be 2667 9cbd
00000260: a0b5 fb3f 55f9 013d 880e 9cbc 3c15 473e
00000270: 30f6 6340 6417 2740 9408 bebf 6477 c03e
00000280: a8b4 2240 6e11 dabf 4c65 abbe 4a66 e8bf
00000290: 544c 5aba 8b9c 1cbf 02bd d8be 1629 0940
000002a0: 279f 413e 1133 3040 e4ed 3a3e 4c30 1ebf
000002b0: 9108 e93f fb7b 60bf c2a3 06c0 cd3f 74bf
000002c0: 6660 66bf e635 203f 36ce 2bc0 9af0 13c0
000002d0: f374 9c3f 6a25 c9bf 29a2 1f3e ffbf c83f
000002e0: c494 ab3f 8627 67bf 2dac d73f f3b5 1bbf
000002f0: 0f6d dc3f f202 923f 681b 9f3f aa97 bd3f
00000300: 80a7 cc3f bef9 c23f ed47 aa3f c1d1 3340
00000310: 6c9f 853f 8913 0fc0 d1b0 40bf 7c73 b4bf
00000320: 22f3 d23f 5e0d ccbf a250 eebf 4aab 0dbf
00000330: 733f 21c0 2c40 46be 2ecc 41c0 091e 5d3e
00000340: b61a fdbf 723e 2b3f 1b29 543e a6fb 3fbf
00000350: 4928 1240 c9f7 62c0 3613 d03e 23dc afbe
00000360: 40f7 fbbd a4ef 00be c9e6 0140 d744 dc3e
00000370: d19f db3f 7b7d bb3e 6c67 f7bf 2681 af3e
00000380: ffa1 a6bf 0e5e 1ebf cbeb e3be d3af e7be
00000390: 7e32 64c0 6630 c93f bb7f ee3f f314 8bbf
000003a0: 8fff a1bf d325 323e 3ca7 d13f 906a 0d3f
000003b0: 08b6 cfbf bd2f a83f 5582 42c0 5115 bebf
000003c0: 07a5 8abf 0ac7 08bf 23ff 1ac0 808a 8fbf
000003d0: 6f1b 9fbf 5684 5440 07e3 603f 00cd 3c3e
000003e0: 2691 383f d0c4 bb3e 3637 313f 633a 2a3f
000003f0: 3f3c 5abe 5d37 cb3f 1686 13bf 4c28 55bf
-1.7962941 2.328207 0.19674215 -0.51291007 0.264176 1.5926026 -0.8988793 -1.0226706
-0.6215246 -2.6471546 -1.439896 -0.24090542 1.6622299 -0.3245369 1.6318705 1.5354325
-0.09734628 -0.90117496 1.2487022 0.86339694 -1.4019794 1.931773 1.2327169 -1.1221216
-1.0634795 0.7151337 1.5062474 1.6320163 1.9268954 0.5688855 1.2164559 -1.7605116
-2.3058443 -0.32155797 -2.5988586 -1.4147704 -0.8482626 -2.6354454 -0.7359551 -1.1997155
-2.1927109 2.660534 0.42233714 -1.648341 -1.7824733 -2.3376849 0.5778499 0.21848264
-0.093464054 1.1356272 -2.641656 1.6505547 2.200506 0.72854584 1.1698182 -1.1628323
-2.085716 1.6920748 1.1607081 2.1812515 0.09818599 -1.969025 1.3010708 -1.6377448
-0.8284595 1.3809307 0.28811228 0.568897 1.7118586 -1.1312257 -1.7835582 -2.5342436
1.2571399 0.0020858457 0.6350596 -0.57596403 1.1371996 -1.4764737 0.81053805 -0.98320156
-2.5045705 -0.5363094 -2.713762 -2.1252317 -0.72354776 1.376381 1.9730498 0.07347491
-2.0000813 0.67004865 2.3692276 -1.8678792 0.20765233 -4.1526833 0.019811228 -1.2520919
1.6513816 -0.9555004 1.7116157 -2.1301298 -0.22291246 -0.15635218 1.0281174 2.0033147
-0.20613383 0.35616264 1.0744414 1.8574636 -0.017704774 -0.6112948 -0.61645997 -0.6344225
-2.4259715 -1.0846242 -1.158345 -1.1134096 2.3777149 -0.5599895 -0.079790115 2.770091
-3.852718 0.17689781 -2.1568158 -1.6341184 0.8945537 1.2073448 2.4125473 -0.04450033
-2.3345501 -1.0003494 -1.0156997 -1.4614877 0.803414 2.5103514 -1.0763834 2.607792
0.3600579 1.4015177 -1.1706215 -0.020044751 -1.5870835 1.2492745 -2.8245163 1.5932801
-1.644999 -2.4197397 0.22133294 0.34658304 -0.27383682 -0.4287299 -0.47560823 -0.076368615
1.9664803 0.031731922 -0.019049898 0.19441694 3.561901 2.6108027 -1.4846368 0.37591088
2.5422764 -1.7036569 -0.3347572 -1.8156216 -0.0008327414 -0.61176366 -0.42331702 2.1431327
0.18908368 2.7531168 0.1825481 -0.61792445 1.8205739 -0.8768918 -2.103745 -0.9540985
-0.8999084 0.6258224 -2.684461 -2.3115602 1.222319 -1.5714543 0.15589203 1.5683593
1.3404775 -0.9029468 1.6849419 -0.6082451 1.7220782 1.1407149 1.2430239 1.4811909
1.5988617 1.5232465 1.33032 2.8096774 1.0439277 -2.2355673 -0.752698 -1.4097743
1.6480448 -1.5941579 -1.8618357 -0.5533949 -2.5194976 -0.19360417 -3.0280871 0.21593489
-1.9773777 0.6689216 0.20718805 -0.7499336 2.2837088 -3.5463736 0.40639657 -0.34347638
-0.123030186 -0.12591416 2.029711 0.4302127 1.7158147 0.36619172 -1.9328437 0.3427822
-1.3018187 -0.61862266 -0.44515833 -0.4525133 -3.5655818 1.5717895 1.863273 -1.0865768
-1.2656115 0.17397241 1.6379161 0.55240726 -1.6227427 1.3139569 -3.0392048 -1.4850255
-1.0831612 -0.5342871 -2.4218223 -1.1214142 -1.2430247 3.3205771 0.87846416 0.18437576
0.7209648 0.36673594 0.6922487 0.6649534 -0.21312045 1.587627 -0.57626474 -0.83264613

fc1.bias f4 [256]
00000000: d87d 463f 8a40 8abf d1a5 c2bf 87ce bcbf
00000010: ad20 de3e 09f0 89bf 7e01 58bf 15a2 c53e
00000020: 76b5 06be 927c a73f d3c6 6d3e 4a0c 243e
00000030: e1f7 203f d96a 663f 176f 6c3e 07b1 483e
00000040: a7d4 cbbe 8575 27be bb39 d7be 1e23 a4be
00000050: 5650 2bbf f5ef 74be 11d1 273f 3219 eebe
00000060: 1450 c0be a577 203f 3b22 02bf 4a00 933d
00000070: 1938 85bf 08a0 003e 00ea 9a3d 454b 39bd
00000080: 27c6 86bf d3f8 363f 5ca7 d83d 3355 abbf
00000090: 9bd8 9c3e 8351 4dbe d431 1b3f 8041 51be
000000a0: 92eb 35bd 4ef0 44be 363a 883e db17 39bf
000000b0: 120c 4f3e fa8d 07bf a744 973e b037 95be
000000c0: 82ff 3ebd c56d 143c 5ad7 64bf ed44 f8be
000000d0: 4f03 933e 739d 22bf ea25 30bf aa0d 70be
000000e0: 71cf 593d 5cf1 30bf d2c8 55bf fecc a93e
000000f0: 2f32 603e d9f5 b43f ec00 a0bd 7348 923f
00000100: 8ed6 3fbf 7d85 02be 4dde 98bf 91d8 503e
00000110: 758b b63e f0a8 18be e107 1dbe 52a2 1cbe
00000120: 8761 bebf 22cd 02bf 366f a63e 743a c6bd
00000130: f39a 15bf 00a0 563f a56a d43c 6a5c 503f
00000140: e72e 43bf 5fc2 7dbf 7cf7 973d f215 86bf
00000150: 3200 c1bf fb9f 52bf 4042 99be bbfa c0be
00000160: 667c d3be c8df 44bd 2cb7 a63d 29b2 2dbe
00000170: 6579 bcbd f5ee 26bf 328c a13e 086e c7bf
00000180: 9e76 5bbf b019 9abf 1e07 54bf 41de 3d3f
00000190: c95b 6cbe 13fd 91be 7ab9 aebe 9e10 19be
000001a0: c07b 45bf 030e 57c0 2edc 94be 6f20 41bf
000001b0: 7899 a43f 27c9 0b3f df2f fb3e e3ab 46bf
000001c0: f7c0 cbbf 7fa5 043e 8767 b6be 8a65 b9bd
000001d0: 21c1 7dbe fc59 d7bd 8c77 9c3e a98e 13bf
000001e0: 8fe4 813e e4f4 8fbe 3143 ee3d 72ec 523e
000001f0: afe1 593e 316f 02bf 8ee2 91bd a356 bfbf
00000200: bbb0 433e 7299 423e 1909 01bf 73b2 b5be
00000210: bb81 cc3e 7633 89be 896c d03e 48a6 bf3e
00000220: 418e 82c0 58a2 eebe 4d2b eabe f51a 74be
00000230: adbe 463f d1aa c6bf bc6e 0c3e b0b9 3dbd
00000240: a0e6 aebe f640 00bf 9803 b43e 5993 a3be
00000250: 7526 29bf d5d3 06be 711d 70be 78a0 97bd
00000260: 1bfb 9abe c376 1aba 98e0 98be 9338 0a3f
00000270: a8ec d1be faea 333f 5a09 aabe aa51 d4be
00000280: adb8 b9bd 7f65 debe 6e89 49bd 88c1 473f
00000290: 1229 393f 2e85 a2bd 82cd 20bf 6237 38bf
000002a0: bc36 87be 49ae 42bc fa90 b23e 13b3 363f
000002b0: 21c9 a3bb f8e0 debd 4c46 0a3f b0b3 32be
000002c0: 8836 c2be 19da 18bf d4a7 b43e ded0 883d
000002d0: 1840 91bd df7b 30be d7b3 23bf 6657 4a3f
000002e0: 3e4a 183f a21d ca3d 2efe 32be e877 efbb
000002f0: 5dd8 d1bd 0f34 25be 442a 92be 419a dabf
00000300: be34 4ebf 0f40 cb3d e95e ab3e a984 1dbf
00000310: 7243 d2bd dba5 ca3e 46d8 82bf 15be beba
00000320: bd55 483f 264e cdbe d56d cebf 748e eabe
00000330: 9f01 8bbf bffe 363f 52db a6be dbba 5bbf
00000340: cccb e3bd 4a2a 7d3f a3f9 03bf 53c4 b53e
00000350: 393d 2e3f dc67 263e 6e40 983f 868e a4bf
00000360: 17c5 9fbd 39ab 313f dbe1 08bf c31c c3bd
00000370: 0407 21bf 3968 2ebf f861 91bf 264f 13be
00000380: 8187 103f ff09 0c3f 12dc d4be b37b fc3d
00000390: 7678 183f f92e 8b3f 9265 1bbf 8c92 d9bf
000003a0: d7ec a0bd 21fc 83bf 34c8 77bf b4a5 cb3f
000003b0: 3457 b13f 1cfe 21bf 3318 b13e efb0 46bf
000003c0: 4277 10be cbc7 9d3e 15a1 cabe e16e 593f
000003d0: b559 89be 01c7 d93e 48be 883e c885 84bf
000003e0: 1c06 3dbf 1205 a43d 22b9 42bd 5299 8ebc
000003f0: 13f4 c2be e5a5 de3f b0d5 e73f 8a2b 2a3e
0.7753577 -1.0800946 -1.5206853 -1.4750527 0.43384305 -1.0776378 -0.84377277 0.3860022
-0.1315516 1.3084891 0.23220377 0.16020313 0.62878233 0.90006787 0.23089252 0.1959878
-0.39810678 -0.16353424 -0.42036232 -0.32058042 -0.6691946 -0.23919661 0.65553385 -0.46503597
-0.37561095 0.62682563 -0.5083348 0.071777895 -1.0407745 0.12561047 0.07564163 -0.0452378
-1.0529221 0.71473426 0.10578796 -1.3385376 0.30634007 -0.20050626 0.60622907 -0.20435143
-0.04441411 -0.19232294 0.2660691 -0.72302026 0.20219448 -0.52951014 0.29544565 -0.2914405
-0.04663039 0.009059374 -0.893911 -0.48490086 0.28713462 -0.635215 -0.6880785 -0.23442712
0.053176347 -0.69118285 -0.8350955 0.3316421 0.21894144 1.4137527 -0.07812676 1.142836
-0.7493676 -0.12746234 -1.1942841 0.20395114 0.35653272 -0.14908195 -0.15335037 -0.15296295
-1.4873513 -0.5109426 0.32506722 -0.09679118 -0.5843956 0.8383789 0.025929758 0.8139101
-0.7624344 -0.9912471 0.07420251 -1.0475447 -1.5078185 -0.8227536 -0.29933357 -0.37691292
-0.41305846 -0.048064977 0.08140406 -0.16962494 -0.09202842 -0.6520837 0.31552273 -1.5580454
-0.8572787 -1.2039089 -0.8282336 0.7416726 -0.23081888 -0.28513393 -0.34125882 -0.14947745
-0.7714195 -3.3602302 -0.29074234 -0.75440115 1.2859335 0.5460381 0.4905996 -0.7760603
-1.5918263 0.12953757 -0.3562586 -0.0905257 -0.24780704 -0.1051521 0.30559957 -0.5763956
0.2536969 -0.28116524 0.116339095 0.20598009 0.21277498 -0.50950915 -0.0712329 -1.4948314
0.19110386 0.19003847 -0.50404507 -0.35487708 0.39942726 -0.26797074 0.40707806 0.3743155
-4.079865 -0.46608233 -0.4573616 -0.23838408 0.776347 -1.5520879 0.13714117 -0.046319664
-0.34160328 -0.5009912 0.35158992 -0.31948355 -0.66074306 -0.13166745 -0.23448731 -0.07403654
-0.30269703 -0.00058923307 -0.2985885 0.53992575 -0.41000867 0.7028042 -0.3321026 -0.41468555
-0.09068427 -0.4343681 -0.04920333 0.7802968 0.72328293 -0.07935558 -0.6281358 -0.7195951
-0.26408947 -0.011882373 0.34876233 0.71366996 -0.0049983417 -0.10882753 0.54013515 -0.17451358
-0.3793223 -0.5970779 0.35284293 0.06680463 -0.07092303 -0.17234753 -0.6394629 0.7903961
0.59488285 0.09868933 -0.17479774 -0.007307995 -0.10246346 -0.1613314 -0.2854787 -1.7078325
-0.8054923 0.099243276 0.33470848 -0.6153055 -0.102667704 0.39579663 -1.0222251 -0.0014552498
0.78255826 -0.40098685 -1.6127268 -0.45811808 -1.085987 0.7148246 -0.32589203 -0.85831994
-0.111228555 0.98892653 -0.5155279 0.35501346 0.6806217 0.16250557 1.1894662 -1.2855995
-0.07801264 0.6940189 -0.5346963 -0.0952697 -0.6290133 -0.6812778 -1.1358023 -0.14385661
0.5645676 0.5470275 -0.4157415 0.12328281 0.5955881 1.087371 -0.6070186 -1.6997848
-0.078576736 -1.0311319 -0.9678986 1.5909944 1.3854737 -0.63278365 0.34588775 -0.7761373
-0.14107993 0.30816492 -0.3957602 0.8493481 -0.26826254 0.4253464 0.26707673 -1.0353327
-0.7383745 0.080087796 -0.047539838 -0.017407093 -0.3807684 1.7394377 1.8112087 0.16618171

fc2.weight f4 [9, 256]
00000000: 5d11 38bf 75fb abbe 3dbe aabe e67e f5bf
00000010: 0d57 a2bc 5b55 c5bf 0fc2 883e 3f3a ef3e
00000020: 20ac da3d 4814 233e 6bfb bbbf 6ea1 2dbd
00000030: b8e6 d83e 3150 5c3f 42e3 dfbf 818e ae3e
00000040: bcdd 92bf 3d5b 87bd 0a51 083f 80b4 073f
00000050: 7b79 353f 4f0e c13e 0d0b 2b3f bf37 3a3f
00000060: 11b2 6dbf e07f c43f c6a7 1e3f 35c5 54bf
00000070: 5162 b13f 7ed2 46bf 0918 01c0 1413 ac3f
00000080: 9fd5 afbf 62d2 d13e b2ce 18bf 9ee3 473f
00000090: 6129 4ebf 81b2 7ebf ff15 a0bf 3409 25bf
000000a0: a982 e0bf 73cb 8bbe 04ca 97bf 41e6 ffbe
000000b0: 6757 573e b228 323f d0cc edbd 32e6 4dbf
000000c0: f208 a73e ac46 053f 5d77 453e 4609 87be
000000d0: d9dc 7fbf a659 81bf 9852 043f 275b 0dbf
000000e0: a7f0 0e3e 8813 403e ad04 223f a237 6cbf
000000f0: 601b ec3d 9c50 ffbd a15f 413e e651 e23d
00000100: 7121 4cbe d591 093f 3472 9d3f 2f02 0bbe
00000110: 55a6 333f a44d 15be 7ccd 63bf e4bd 23bf
00000120: 75f1 40bf f7b6 80bf e96a 9ebf 1ae1 5f3d
00000130: d32e adbf 1147 acbd bc8d 19bd e32d 993f
00000140: 9744 acbe 3134 1e3f b864 e43f 8815 a2be
00000150: a10a 3cbf e74d 64bf a4dc 883f 0aba ad3f
00000160: d169 fdbd 9805 dfbf eb4c cc3f 4d87 d73e
00000170: eac8 603d 3e85 d1bd 718d c5bd 59fd b8be
00000180: 4769 8b3f 4687 6ebf db0d 3c3e 1d7a adbf
00000190: 32dc 51be cb01 aebe 8669 3d3e 8b09 5d3f
000001a0: dc2d 583f 18ab b33f 584a 39bf 1ca4 373e
000001b0: 2c85 473f ede6 77bf c3c3 47bf 4b8c 0ebf
000001c0: 9d37 aebf 3a4a 93bf 41fe 703f 16fc 803f
000001d0: 22fb c43d 4c68 b73e dab9 fa3e 29e2 443f
000001e0: 9097 733e 0889 3dbf 0fdc 173d a0fb 61bf
000001f0: fc81 7bbe 450f 993f 812f 0a3f d3c8 0d3e
00000200: c94c ef3e c28f 333f 1fd4 0bbf 529a adbe
00000210: f472 b0be 7aa0 c2bf 84a4 00be 56bb 22bd
00000220: fd5c 1f40 5a8c 00bc 13df 7a3f 5c4b c43f
00000230: d8a9 3ab9 6efa 4dbf d696 763f ff74 c23d
00000240: 3bdf 97bf 39c1 b5bf 47f4 bfbe b0a1 ccbe
00000250: dc22 5abf 956c 2fbf 3b9a 293f 4093 803e
00000260: 17d4 85be f4f3 4fbf ae40 133e 886a 0ac0
00000270: fdaa 253f 339e c63a 7dff 3c3f bfc6 1cbf
00000280: 90ae 69bf cbfe 1bbe dd89 30be edfe 503f
00000290: df05 8d3e e232 283d aede a9bf fde6 36c0
000002a0: 00f1 8e3f 75db d9bd 742a dbbe 7016 84bf
000002b0: 27cd ea3e c0d3 87bd 4cce 763f bde8 953f
000002c0: ea42 a8bf 6b27 e03f ca8d f9bc 9fe0 01bf
000002d0: 62e3 a9bf 1385 4d3f 2698 aabf a786 f9bf
000002e0: a7e1 563f e5e8 ca3e 174d 7bbf 55ae 9e3f
000002f0: 9bb3 1d3f f5b9 873f e0de cbbf fd9a 923f
00000300: fe3d dcbe 2c13 2c3f 7f94 d8be 59a1 963f
00000310: 4adc 5fbe 6f6e c63f f0b5 d5bf eb0e 633f
00000320: 0519 a13f 1dbc 90bf 6959 ab3f 92f7 4fbf
00000330: a31f 613f 070d 043f f7d1 ddbf c773 3abf
00000340: 1854 4bbf f6f8 6f3f 3ca5 6e3f 75d2 bcbe
00000350: f0eb 9fbe 7765 1bbf 2a55 363f 8c9c e0bf
00000360: 97cd 89bf 63cd a1bf 51be 2d3d 4bf1 1abe
00000370: f311 e8be 89dd 78bf 67dd 703e 8028 923f
00000380: 392b 92bf b743 85be 5b74 92bf dd88 2a3f
00000390: 30ef 033e 60dc 4d3f 9cfd ae3e a0ba 25bf
000003a0: c6dd 833f 0f06 0fbe 33c8 febf a2cf a4be
000003b0: 355b 933f 1c92 dd3f 9e2a 1b3f da3c 5a3f
000003c0: 9399 9e3d 1850 083f 1d52 553f e41e afbf
000003d0: 6421 013f 33cc 30be 139c ad3d e1bd d0bf
000003e0: e23b df3e 7c36 2cbe 19ec 94be eb50 723f
000003f0: daee 933f bca9 f53e 3312 dcbe 3ee1 583f
-0.71901494 -0.33590284 -0.33348265 -1.9179351 -0.0198169 -1.5416673 0.26710555 0.46724126
0.106773615 0.15925705 -1.4686102 -0.04239028 0.42363524 0.8605986 -1.7491229 0.34093097
-1.1473918 -0.06609199 0.53248656 0.53009796 0.7088849 0.3770623 0.6681374 0.7274131
-0.9284983 1.5351524 0.6197475 -0.83113414 1.3858129 -0.77664936 -2.017092 1.3443322
-1.3737067 0.40980822 -0.5969039 0.7808169 -0.8053189 -0.99491125 -1.2506713 -0.6446717
-1.7539874 -0.27303657 -1.1858525 -0.49980357 0.21029435 0.69593346 -0.116113305 -0.80429375
0.32624012 0.5206096 0.19283815 -0.26374263 -0.9994636 -1.0105484 0.5168853 -0.5521721
0.13958989 0.1875745 0.63288385 -0.9227239 0.11528659 -0.12466547 0.18884136 0.11050777
-0.19934632 0.5373815 1.2300477 -0.13575052 0.7017568 -0.14580399 -0.8898542 -0.63961625
-0.75368434 -1.0055836 -1.2376376 0.054658033 -1.3529915 -0.08411992 -0.037488684 1.1967129
-0.3364608 0.6179839 1.7843237 -0.31657052 -0.7345372 -0.8918137 1.0692334 1.35724
-0.123736985 -1.7423582 1.5960974 0.42095414 0.054879107 -0.10230492 -0.096461184 -0.3613079
1.0891503 -0.9317516 0.1836466 -1.3552891 -0.20494154 -0.33985743 0.18497285 0.86342686
0.84444976 1.4036589 -0.72379065 0.17933697 0.7793758 -0.9683674 -0.78033084 -0.5568282
-1.3610722 -1.1507027 0.9413796 1.007693 0.09618212 0.3582176 0.48969918 0.76907593
0.23788285 -0.7403722 0.0370751 -0.88274574 -0.24561304 1.1957785 0.53978735 0.1384614
0.4673827 0.7014123 -0.54620546 -0.339068 -0.34462702 -1.5205224 -0.12562758 -0.03972944
2.4900506 -0.007845962 0.97996634 1.5335498 -0.00017801614 -0.8046025 0.9632391 0.094949715
-1.1865 -1.4199592 -0.37491056 -0.39967108 -0.8520944 -0.6852506 0.6625096 0.25112343
-0.26138374 -0.8123162 0.14380142 -2.1627522 0.6471403 0.0015153348 0.73827344 -0.6124076
-0.91281986 -0.15233915 -0.1724009 0.81638986 0.27543542 0.04106415 -1.3271081 -2.8578484
1.1167297 -0.10637561 -0.42805827 -1.0319347 0.45859644 -0.06632185 0.96408534 1.1711651
-1.314542 1.751203 -0.030463118 -0.5073337 -1.3272517 0.8028118 -1.3327682 -1.9494218
0.8393807 0.3963081 -0.98164505 1.2396952 0.6160218 1.0603625 -1.5927391 1.1453549
-0.43016046 0.67216754 -0.42300794 1.1767989 -0.21861377 1.5502452 -1.6696148 0.8869464
1.258576 -1.1307408 1.3386661 -0.8123714 0.879389 0.5158238 -1.7329701 -0.7283291
-0.7942519 0.9373926 0.9322088 -0.36879316 -0.31234694 -0.607017 0.712237 -1.7547774
-1.0765866 -1.2640804 0.042417828 -0.15131108 -0.45326194 -0.97213036 0.23521958 1.141861
-1.141944 -0.26028225 -1.1441759 0.66615087 0.12884212 0.8041439 0.34177864 -0.6473789
1.0302055 -0.13967155 -1.9904846 -0.3218966 1.1512209 1.7310214 0.60611904 0.852491
0.07744136 0.53247213 0.8332842 -1.3681302 0.50441575 -0.17265396 0.084770344 -1.6307946
0.43600374 -0.16817659 -0.29086378 0.9465472 1.1557267 0.4798106 -0.42982635 0.8471869

fc2.bias f4 [9]
00000000: 8b31 683e b471 3d3e 9587 01bd c904 453e
00000010: 5fa2 e43d ca8e 503f 33fb dd3e 4b90 903e
00000020: d422 613e
0.22675149 0.18500406 -0.03162344 0.19240107 0.11163782 0.8146788 0.43355712 0.28235087
0.21985942
